DigitRecognition/part2-twodigit/mnist_model_fully_connected.pt (torch_old, 311765 bytes, 6 tensors)

weight f4 [64, 1176]
0	0x3cc57b60	0.024106681
1	0xbbb079b8	-0.0053856038
2	0xbcea16cc	-0.028575324
3	0x3c0974c0	0.008389652
4	0x3cdd2ee4	0.026999898
5	0x3ccfaae6	0.025350045
6	0xbceb4c04	-0.02872277
7	0x3cd704ae	0.026247349
8	0x3c10ff54	0.0088499375
9	0xbcdbf67f	-0.026850937
10	0x3ce5562e	0.027995195
11	0x3ad3b780	0.001615271
12	0x3b891548	0.004183445
13	0x3c39d8de	0.011343209
14	0x3c09e3d2	0.008416133
15	0xbc8ee114	-0.01744131
16	0x3c88c8ae	0.016697254
17	0x3ca8fa5e	0.020627197
18	0xbc7648bb	-0.015031989
19	0x3c66df28	0.0140912905
20	0xbba9e824	-0.005185144
21	0xbc9aeb60	-0.018911064
22	0xbc37adc6	-0.011210864
23	0xbb5fb990	-0.0034137703
24	0xbc8367e1	-0.016040744
25	0x3c864778	0.0163915
26	0x3c8caf8e	0.017173555
27	0xbc626c2c	-0.0138197355
28	0xbc944af6	-0.01810215
29	0x36ae6000	5.19678e-06
30	0x3bd13030	0.006383918
31	0x3c8f199a	0.017468262
32	0xbb7a8a70	-0.0038229488
33	0xbc98bfc8	-0.018646136
34	0x3a214acc	0.0006152808
35	0x3cb914f8	0.022593006
36	0xbba86604	-0.0051391143
37	0x3c6e029a	0.014526987
38	0xbb054f20	-0.0020341352
39	0xbcbade18	-0.02281098
40	0xba136914	-0.0005623263
41	0xbccac1f1	-0.024750682
42	0x3ce4087f	0.027836083
43	0x39da97ba	0.00041693245
44	0xbc3cbb29	-0.011519232
45	0x3bc864fc	0.006115554
46	0xbca1fa1d	-0.019772584
47	0x3b347b30	0.0027539246
48	0x3c398035	0.011322071
49	0xbce0436a	-0.027375896
50	0xbc8d9184	-0.017281301
51	0x3d039978	0.03212878
52	0x3c6de9fc	0.014521118
53	0x3c6794b0	0.014134571
54	0xbc40cec0	-0.011768043
55	0xbce0d072	-0.027443144
56	0xbc4266aa	-0.011865297
57	0xbc941b60	-0.01807946
58	0xbc36b800	-0.011152267
59	0x3cdc24f0	0.026873082
60	0x3cbae457	0.022813959
61	0x3ca6462f	0.020297138
62	0xbc1fe88b	-0.009760032
63	0x3ce4f239	0.027947532
64	0xbc8851fa	-0.016640652
65	0x3aac4d92	0.0013145676
66	0x3c0038a2	0.007826002
67	0xbd146a21	-0.036234025
68	0x3b990873	0.0046701967
69	0xbcad5568	-0.021158889
70	0x3726b6e8	9.936957e-06
71	0x3c5c552d	0.013448042
72	0xbc411f75	-0.011787285
73	0xbd5e4361	-0.054263476
74	0xbccce8ac	-0.02501329
75	0x3d7adc6b	0.061245363
76	0x3d166b55	0.036723454
77	0x3d1d3f94	0.03839071
78	0x3c6b235d	0.014351693
79	0x3c5f3940	0.013624489
80	0xbcb5699e	-0.022145089
81	0xbd3039ba	-0.043023802
82	0x3bcbce08	0.006219629
83	0xbbfe6688	-0.0077636875
84	0x3b86d260	0.004114434
85	0x3bf086a8	0.007340271
86	0xbcc7a5f6	-0.024371129
87	0x3cb094e8	0.021555379
88	0x3ce067ee	0.027393308
89	0xbb9ab552	-0.004721322
90	0x3d1c9fd2	0.038238354
91	0x3d8e8bac	0.06960234
92	0x3c91af36	0.017783742
93	0xbd3b64d9	-0.045750473
94	0xbd8f7e50	-0.07006514
95	0xbd93ed17	-0.07222956
96	0xbe0adc78	-0.13560665
97	0xbda010d2	-0.07815708
98	0xbdb6e5a3	-0.089305185
99	0x3cd85d00	0.026411533
100	0xbaeea1be	-0.0018206162
101	0x3cba36c4	0.022731192
102	0xbc788afd	-0.015169856
103	0x3da5da4f	0.0809828
104	0x3d0361d8	0.032075733
105	0xbc9081ca	-0.017640013
106	0x3a92de19	0.0011205106
107	0x3caaf2dc	0.020867757
108	0xbcaf6ae8	-0.021413282
109	0xbd05d9c4	-0.03267838
110	0xbc7729c3	-0.01508564
111	0xbcb4d38a	-0.022073526
112	0xbcee8278	-0.029114947
113	0xbca09bc2	-0.019605521
114	0x3c7fbd49	0.015609094
115	0x3bed70bc	0.007246105
116	0xbbe9b5ad	-0.007132253
117	0x3d5c59d8	0.05379662
118	0x3ca37a03	0.01995564
119	0xbcff2a36	-0.031148057
120	0xbd0db773	-0.03459878
121	0xbdcba977	-0.09944432
122	0xbc94aade	-0.018147882
123	0xbd8922d6	-0.066960976
124	0xbe28ea14	-0.16495544
125	0xbc273ced	-0.010207397
126	0xbd1bb708	-0.03801635
127	0xbe52ff94	-0.20605308
128	0xbe19eb9f	-0.15031289
129	0xbccd4e65	-0.025061795
130	0xbd4190f4	-0.04725738
131	0xbc517525	-0.012784277
132	0x3cb1f062	0.021721069
133	0x3d376793	0.04477651
134	0xbc1fb293	-0.009747165
135	0xbcbee2a0	-0.023301423
136	0xbd7e0749	-0.062018666
137	0xbd558b1e	-0.052134626
138	0xbb4bbde7	-0.0031088532
139	0x3cd54bba	0.026037086
140	0x3c04f41c	0.008114841
141	0xbcc4095a	-0.02393024
142	0x3c33a628	0.010964908
143	0xbb95a2e1	-0.004566536
144	0xbcb7ea30	-0.022450536
145	0x3da70cc7	0.08156734
146	0x3d18402f	0.037170585
147	0xbd3c9bd8	-0.04604706
148	0xbc97e56d	-0.018542016
149	0xbc1c385a	-0.00953492
150	0xbda8a44c	-0.08234462
151	0xbdafd5f0	-0.08585727
152	0xbdfeb8d6	-0.124375984
153	0xbe2555d1	-0.16146018
154	0xbdb76790	-0.089553
155	0xbd32391c	-0.043511495
156	0xbd1b4354	-0.037906006
157	0xbe1314d7	-0.14363419
158	0xbddebe2c	-0.10876116
159	0xbde9aa27	-0.11409407
160	0xbd8c8a09	-0.068622656
161	0xbce61746	-0.02808727
162	0x3d07bf29	0.03314129
163	0xbd02ac1d	-0.03190242
164	0xbb82afd0	-0.0039882436
165	0xbd169463	-0.036762606
166	0x3ca33fae	0.019927826
167	0xbc958930	-0.018253893
168	0xbce99731	-0.028514476
169	0xbc98a849	-0.018634932
170	0x3ca27fa0	0.019836247
171	0x3ca27a7f	0.019833801
172	0xbd41b9ce	-0.047296338
173	0xbc8e7e0d	-0.01739409
174	0xbceed45c	-0.029153995
175	0xbdf3d0da	-0.1190507
176	0xbd68a53f	-0.056798216
177	0x3bddb1a3	0.0067655607
178	0xbd8ccd6e	-0.0687512
179	0xbd814821	-0.063125856
180	0x3ce47444	0.027887471
181	0x3ba80616	0.0051276786
182	0xbd9a20ca	-0.07525785
183	0xbc466860	-0.012109846
184	0xbe1dd7d0	-0.15414357
185	0xbdbfb253	-0.093601845
186	0xbd7e81ac	-0.062135383
187	0xbd875c9e	-0.06609462
188	0xbc86fa33	-0.016476726
189	0xbd2ae18c	-0.041719005
190	0xbd3de487	-0.04636052
191	0x3cc9bebe	0.024627086
192	0xbc5abf96	-0.013351342
193	0xbd9d11b5	-0.07669393
194	0xbc79a8f4	-0.0152380355
195	0xbb0ed7b2	-0.0021796045
196	0x3b6f47ef	0.0036511382
197	0xbc8e666a	-0.01738282
198	0x3b0904f4	0.0020907493
199	0x3b853b8c	0.0040659364
200	0xbd825561	-0.06363941
201	0x3bfe8148	0.0077668764
202	0xbcd63a70	-0.026150912
203	0xbd88e946	-0.066851184
204	0xbddc1d7b	-0.107478105
205	0xbd50245f	-0.050815936
206	0x3ca6805b	0.020324877
207	0x39e6f8ee	0.00044054486
208	0xbd6cba9d	-0.057795156
209	0xbe28f9ea	-0.16501585
210	0xbdf508d8	-0.119645774
211	0x3c230947	0.009950942
212	0xbd1408bd	-0.036141146
213	0xbdc5d26a	-0.09659274
214	0x3d56bff4	0.052429155
215	0xbde62de8	-0.11239225
216	0x3d3bcc84	0.04584934
217	0xba4ab57c	-0.0007732732
218	0xbd8e4112	-0.06946005
219	0xbd53718c	-0.05162196
220	0xbd113b3b	-0.035456877
221	0xbc48e556	-0.012261709
222	0xbc21faa6	-0.009886419
223	0xbcb410b1	-0.021980615
224	0xbc49aada	-0.012308801
225	0xbc80a5ee	-0.015704121
226	0xbca8aece	-0.020591166
227	0xbcca55f9	-0.024699198
228	0x3cffa855	0.031208197
229	0x3dbf6d15	0.093469776
230	0x3cdd3035	0.027000526
231	0x3d181d4c	0.037137315
232	0xbc9f4b1b	-0.019444993
233	0xbc981557	-0.018564863
234	0xbd570589	-0.052495513
235	0xbddca9b7	-0.10774558
236	0x3d4e6570	0.050389707
237	0x3e02e772	0.12783602
238	0xbd23a77b	-0.039954644
239	0xbe166718	-0.14687765
240	0xbdeee35e	-0.116644606
241	0x3bb4cf7e	0.005517899
242	0xbcbd5585	-0.023112068
243	0xbdd67959	-0.10472364
244	0xbdc1ee92	-0.09469332
245	0xbd802d84	-0.062586814
246	0xbdbe8c1e	-0.09304069
247	0xbda80e20	-0.08205819
248	0xbdad647a	-0.0846643
249	0xbd8252ba	-0.06363435
250	0xbd42f865	-0.04760017
251	0xbce50787	-0.02795769
252	0xbc036837	-0.008020452
253	0xbc9f4b35	-0.019445041
254	0xbd615699	-0.055014227
255	0xbd13feed	-0.036131788

bias f4 [64]
0	0xbf050a6d	-0.51969033
1	0xbe4838a5	-0.19552858
2	0x3d2ddf66	0.042449377
3	0xbe48361c	-0.19551891
4	0xbe0253e0	-0.12727308
5	0xbd21d9c9	-0.039514337
6	0x3f07c328	0.5303216
7	0x3d8b6198	0.06805724
8	0xbdceb27a	-0.100926355
9	0x3e8d2d4a	0.27573615
10	0x3ef40df2	0.4766689
11	0xbec9d583	-0.3942071
12	0x3ebf96ec	0.37419832
13	0x3dad45e4	0.08460596
14	0x3d84fe57	0.06493824
15	0x3eabf26e	0.33583397
16	0x3e487c1a	0.19578591
17	0x3cc4c370	0.024018973
18	0xbe77af53	-0.24187975
19	0x3ea2bef6	0.31786317
20	0x3e363fb3	0.17797737
21	0x3ee4eb9a	0.44711
22	0xbea9d4f9	-0.33170298
23	0xbdad943b	-0.08475538
24	0x3e003082	0.12518504
25	0x3e8c6a46	0.2742483
26	0x3c6c8b96	0.014437577
27	0xbf052791	-0.520135
28	0xbdec17a3	-0.11527946
29	0x3e01e1a3	0.1268373
30	0x3e6c137c	0.23054308
31	0xbd777316	-0.06041249
32	0xbeb11bd0	-0.34591532
33	0x3d94d0f2	0.07266416
34	0x3e1abf74	0.15112096
35	0x3caa1dd9	0.020766186
36	0x3e091f54	0.13390857
37	0xbe69f8f0	-0.22848868
38	0x3da6b35b	0.08139678
39	0xbe0d59d2	-0.13803795
40	0x3ebe1269	0.3712342
41	0xbd988d99	-0.074488826
42	0x3e00590f	0.12533973
43	0x3c82ba3a	0.01595794
44	0xbe932c3a	-0.2874468
45	0xbe069d1d	-0.13145871
46	0x3ef02612	0.46904045
47	0x3e83f7b5	0.25774923
48	0xbde01d49	-0.10943086
49	0x3ed9c373	0.42531928
50	0xbc7f8db8	-0.015597753
51	0x3e379400	0.17927551
52	0x3e1d1d38	0.15343177
53	0xbdb72f6f	-0.08944594
54	0x3e8cf4a5	0.275304
55	0xbe7982ea	-0.24366346
56	0x3ea0acac	0.31381738
57	0x3eee2acc	0.46517026
58	0x3e9900cc	0.2988342
59	0xbeb28a57	-0.3487117
60	0xbd289db7	-0.041166034
61	0xbedf1480	-0.43570328
62	0x3d73f337	0.05955812
63	0xbd3fc9e6	-0.046823405

weight f4 [10, 64]
0	0xbf158b4c	-0.58415675
1	0x3eb92d4f	0.3616738
2	0xbecf42a6	-0.40480536
3	0x3f020f3f	0.50804514
4	0x3de1ea9f	0.110310785
5	0xbdb518f3	-0.08842649
6	0xbd1b21fb	-0.037874203
7	0xbec0ebef	-0.37680003
8	0xbe380b1e	-0.17972991
9	0x3e3965f5	0.181053
10	0x3d461402	0.048358925
11	0xbe0eef69	-0.13958515
12	0xbf1ae8e8	-0.60511637
13	0x3e4b1df5	0.19835646
14	0xbdbe34f1	-0.092874415
15	0x3eb49e7b	0.3527716
16	0x3ea6cf5b	0.32580075
17	0x3e9c4a62	0.305255
18	0x3e53f6ec	0.20699662
19	0x3e1a995c	0.15097564
20	0xbddb07eb	-0.106948696
21	0xbefb5785	-0.4909021
22	0x3c81e149	0.015854495
23	0xbd11f123	-0.035630357
24	0xbee5c29e	-0.44875044
25	0xbedcc2b8	-0.4311731
26	0xbf067ff8	-0.52539015
27	0x3ea8a0c8	0.32935166
28	0xbf11fe76	-0.570289
29	0x3e64fb70	0.22361541
30	0x3e4376c9	0.19088282
31	0x3d9147cd	0.07093773
32	0x3e8afc6b	0.27145705
33	0xbeb51059	-0.35364035
34	0x3d866a30	0.065632224
35	0x3de0e5fb	0.10981365
36	0x3c418cc5	0.011813347
37	0x3e9104a9	0.28323868
38	0xbe8df912	-0.27729088
39	0x3ec89634	0.39177096
40	0x3e223073	0.15838794
41	0xbeefae73	-0.46812782
42	0xbea5991e	-0.32343382
43	0x3d8d065f	0.06885981
44	0xbf099bb1	-0.5375319
45	0x3e930b10	0.28719378
46	0xbf09b8d5	-0.53797656
47	0xbec64a82	-0.3872872
48	0x3e30b2d7	0.17255722
49	0xbbcb4f7a	-0.0062045427
50	0x3db0ebad	0.086387016
51	0x3ead13b9	0.3380411
52	0x3e77434f	0.2414677
53	0x3d997d35	0.074945845
54	0xbea2e46c	-0.31814897
55	0xbe74b0b7	-0.23895536
56	0xbe507a15	-0.2035907
57	0x3e910738	0.2832582
58	0xbeff6e2a	-0.49888736
59	0x3e995c04	0.29953015
60	0xbe025ab8	-0.12729919
61	0x3ea14d79	0.3150442
62	0x3d2ca02e	0.042144947
63	0x3e9b609d	0.30347148
64	0x3e95ce3b	0.29258904
65	0xbe99b96e	-0.30024284
66	0xbebe4843	-0.37164506
67	0x3dbaa3e5	0.09113292
68	0x3eb802ec	0.3593973
69	0x3e487bf6	0.19578537
70	0x3ea6a237	0.32545635
71	0x3f29d849	0.6634565
72	0xbe8c7734	-0.27434695
73	0xbefc1a79	-0.49238947
74	0x3e50eaf6	0.2040213
75	0xbd8da7fe	-0.069168076
76	0x3e720e8a	0.23638359
77	0x3e86fc3d	0.26364318
78	0xbe02ad76	-0.12761483
79	0x3ed50c53	0.41610965
80	0xbeb9a632	-0.3625961
81	0xbdbbc30c	-0.091680616
82	0xbea781d1	-0.3271623
83	0x3f10229c	0.5630281
84	0x3dd0222e	0.10162769
85	0x3ec7c201	0.390152
86	0x3e7e19cd	0.2481453
87	0x3e7006b1	0.23440053
88	0x3e13cc2c	0.14433354
89	0x3ee97d40	0.4560337
90	0x3e8e3ec0	0.2778225
91	0xbcdf8746	-0.027286183
92	0xbe313e3d	-0.17308898
93	0x3cbb58cf	0.022869496
94	0xbed993e0	-0.42495632
95	0xbe9a737b	-0.3016623
96	0x3937d051	0.00017529844
97	0x3e4e42c5	0.20142658
98	0xbec5a401	-0.38601688
99	0xbed1f538	-0.410074
100	0x3df085a3	0.11744239
101	0xbe4278d1	-0.189914
102	0xbe53def6	-0.20690522
103	0x3e45f97d	0.19333453
104	0xbebe03f5	-0.37112394
105	0x3e648611	0.22316767
106	0xbe8143ca	-0.2524703
107	0xbe88d46d	-0.26724568
108	0x3eb340cc	0.35010374
109	0x3c9d6e04	0.019217499
110	0xbe129b1b	-0.1431698
111	0xbe608d74	-0.2192896
112	0xbe38462e	-0.17995521
113	0xbdb5b40d	-0.088722326
114	0x3deb3940	0.11485529
115	0xbdcc290e	-0.09968768
116	0xbdfacc82	-0.12246038
117	0x3f002437	0.5005526
118	0x3e3ba321	0.18323947
119	0x3dfc11b2	0.123080626
120	0x3ea9371d	0.3304986
121	0x3e7f17b1	0.24911381
122	0x3eb8dc26	0.3610546
123	0xbf090661	-0.5352536
124	0x3ef727ec	0.48272645
125	0x3e91b4ec	0.28458345
126	0x3db1c0d0	0.08679354
127	0xbe718c6e	-0.23588726
128	0xbf15b0f3	-0.5847313
129	0x3e48eb3f	0.1962099
130	0xbe14e64a	-0.14540973
131	0x3da5d26d	0.08096776
132	0xbcfc224d	-0.030778075
133	0xbf26c042	-0.6513711
134	0xbda3de73	-0.08001413
135	0x3eb541f4	0.3540188
136	0x3ea152e9	0.31508568
137	0x3e86c2f7	0.2632062
138	0xbeb830a1	-0.359746
139	0xbdefe6bf	-0.11713933
140	0x3d3042b4	0.043032363
141	0xbf1717d0	-0.5902071
142	0xbdfb6d4a	-0.122767046
143	0xbcaa6f53	-0.020805037
144	0xbf112ea1	-0.56711775
145	0x3d9a2086	0.075257346
146	0x3e90d077	0.28284046
147	0xbea19f5a	-0.31566888
148	0x3eeee6db	0.46660504
149	0xbebcf151	-0.3690286
150	0x3e9bcf74	0.30431712
151	0x3eae4818	0.34039378
152	0x3ea13b0c	0.31490362
153	0x3e084611	0.13307978
154	0x3e77991d	0.24179502
155	0xbee96986	-0.4558832
156	0xbe1c7898	-0.15280378
157	0x3cb888c6	0.022526156
158	0xbec5a1d0	-0.38600016
159	0x3e9ff3d0	0.31240702
160	0xbe3c2d38	-0.18376625
161	0xbedede63	-0.43529043
162	0x3e99a926	0.30011863
163	0x3cb006ba	0.021487582
164	0x3e13570e	0.14388677
165	0x3ec1c2b3	0.37843856
166	0xbec4c3df	-0.38430688
167	0xbdaca78e	-0.08430396
168	0xbd6e1222	-0.05812276
169	0xbe4c9dae	-0.19982025
170	0xbd5b8bf4	-0.053600267
171	0x3ebe2e5a	0.37144738
172	0xbed5fba5	-0.41793552
173	0x3e331fcd	0.174926
174	0xbbdc84f3	-0.006729716
175	0xbe554ce4	-0.20830113
176	0x3e6a6123	0.22888617
177	0xbf0f0b4f	-0.5587663
178	0xbdf8f1c2	-0.12155487
179	0xbeb3ddec	-0.3513025
180	0xbef0bc84	-0.47018826
181	0x3db02fe0	0.086028814
182	0xbd9814af	-0.0742582
183	0x3e1ea832	0.15493849
184	0xbdeb9f91	-0.11505044
185	0xbeacf52c	-0.337808
186	0x3e8ced22	0.27524668
187	0x3e4f4b00	0.20243454
188	0x3ea9601e	0.33081144
189	0x3e61b26a	0.22040716
190	0xbe9d8336	-0.30764169
191	0x3d2fac9a	0.042889215
192	0xbe171ff8	-0.14758289
193	0x3eb70b7e	0.35750955
194	0xbe54f745	-0.20797451
195	0xbee423b3	-0.44558486
196	0x3e83eecb	0.25768122
197	0xbe2f481c	-0.17117351
198	0xbebd20c4	-0.3693906
199	0x3f140f71	0.5783606
200	0x3d8b28a3	0.0679486
201	0xbe789126	-0.2427412
202	0xbf0e1f11	-0.55516154
203	0xbec68ae2	-0.38777834
204	0xbd09ce04	-0.033643737
205	0x3d9dace6	0.076989934
206	0x3d99d8c8	0.07512051
207	0x3e326c2a	0.17424074
208	0x3e8a7098	0.27039027
209	0xbe5818d5	-0.21103223
210	0x3e7d827c	0.24756807
211	0xbeb15d43	-0.34641466
212	0x3e8d70bb	0.2762507
213	0x3d26e8af	0.040749248
214	0x3e1a7a5d	0.1508574
215	0xbdcd135e	-0.100134596
216	0xbdd18a56	-0.102314636
217	0xbe8d0cc9	-0.27548817
218	0x3dc18455	0.094490685
219	0xbe46e988	-0.19425023
220	0xbe5313d1	-0.20613028
221	0xbecdcbdb	-0.40194592
222	0xbc9a970f	-0.018870858
223	0xbc5b9736	-0.013402751
224	0x3e5258f8	0.20541751
225	0xbed34f17	-0.41271278
226	0xbee6641e	-0.44998258
227	0x3e394a48	0.18094742
228	0x3ed83e58	0.42235065
229	0x3e87b644	0.26506245
230	0x3e5f70bf	0.21820353
231	0xbe9cc9c5	-0.30622688
232	0xbe1167bd	-0.1419973
233	0xbe53c600	-0.20681
234	0x3e04373b	0.12911694
235	0x3d5546ec	0.05206959
236	0x3d5a82e8	0.0533475
237	0x3dc40eb9	0.095731206
238	0xbe32deb7	-0.17467771
239	0x3ed9ac59	0.42514303
240	0xbdaafcea	-0.08349021
241	0x3e263cb2	0.16234091
242	0xbd680748	-0.05664757
243	0x3cf224c8	0.029558554
244	0x3cf7f993	0.030270373
245	0x3cc7e76a	0.024402339
246	0x3e913d9d	0.2836732
247	0xbeb81fac	-0.35961664
248	0x3e3314fd	0.17488475
249	0xbecdc584	-0.40189755
250	0x3ea78075	0.32715192
251	0x3db4de83	0.08831503
252	0xbda06abc	-0.07832858
253	0xbe245939	-0.1604966
254	0x3e6b0a0d	0.22953053
255	0xbe7abe0a	-0.24486557

bias f4 [10]
0	0xbe12a110	-0.14319253
1	0x3dc42c95	0.09578816
2	0x3d5b32ee	0.053515367
3	0xbd99dd01	-0.07512856
4	0xbd0f7cbc	-0.035031065
5	0x3f1ee0e2	0.62061894
6	0xbe91842b	-0.2842115
7	0x3e6a55fc	0.22884363
8	0xbeb7ebe0	-0.35922146
9	0x3d07a5c9	0.03311709

weight f4 [10, 64]
0	0x3ea2da60	0.31807232
1	0xbe8fb36c	-0.28066576
2	0x3e9bb74f	0.3041329
3	0x3e02825b	0.12745039
4	0xbda75b61	-0.08171726
5	0x3da630ce	0.081147775
6	0xbf2a74c7	-0.6658444
7	0xbd0b2d4d	-0.03397875
8	0x3e63a8c5	0.22232349
9	0xbe44108e	-0.1914694
10	0xbe138cf6	-0.14409241
11	0xbe5621a1	-0.20911266
12	0x3e24b726	0.1608549
13	0xbeab7d29	-0.33493927
14	0xbe395487	-0.18098651
15	0xbe4f1c53	-0.20225649
16	0xbedadbf3	-0.42745933
17	0x3e672b17	0.22575031
18	0x3d946809	0.07246406
19	0xbd2a4fd5	-0.04158004
20	0x3e303cd1	0.172107
21	0xbf08fbbd	-0.5350912
22	0x3ef5efc4	0.4803449
23	0x3e5d48a3	0.2160974
24	0xbe09da54	-0.13462192
25	0x3f031a12	0.51211655
26	0x3e57af15	0.21062882
27	0x3eb944d5	0.36185327
28	0xbe41541f	-0.18879746
29	0xbdf4b905	-0.11949352
30	0xbf0f0f7e	-0.55883014
31	0xbe7c1d99	-0.24620666
32	0x3e9b1edb	0.30296978
33	0x3dbe7aae	0.09300743
34	0xbe3ab9d7	-0.18234955
35	0x3ef16896	0.47150105
36	0xbd90a67b	-0.07063004
37	0x3d6ea63b	0.058264
38	0x3f00fb00	0.50382996
39	0x3efaace5	0.48960033
40	0x3e91c8dc	0.28473556
41	0xbe866136	-0.2624604
42	0xbe4a6061	-0.19763328
43	0xbe927e16	-0.2861182
44	0xbec3a06c	-0.3820833
45	0x3e0828ac	0.13296765
46	0xbebaa73e	-0.3645572
47	0x3e177895	0.14792092
48	0xbe58d31c	-0.21174282
49	0x3e49183a	0.19638148
50	0x3dbc5380	0.09195614
51	0x3e5d8f18	0.21636617
52	0x3ef58341	0.479517
53	0xbeecc672	-0.46245152
54	0x3ec4664c	0.38359296
55	0x3ed20762	0.41021258
56	0xbef05b31	-0.46944574
57	0x3eb47b60	0.35250378
58	0x3efaab8c	0.48959005
59	0xbeb5c608	-0.35502648
60	0xbe211a17	-0.15732609
61	0x3e8bfa42	0.2733937
62	0x3f01adc8	0.50655794
63	0x3ec4448e	0.38333553
64	0xbc30f858	-0.010801397
65	0xbe02e995	-0.12784417
66	0x3e782b97	0.24235378
67	0xbec5faa0	-0.38667774
68	0x3dba116e	0.09085356
69	0xbe807773	-0.25091133
70	0x3f03c039	0.51465183
71	0x3f0954f5	0.5364526
72	0xbdd68f09	-0.104765005
73	0xbd8446d4	-0.06458822
74	0x3eaabd7d	0.33347693
75	0x3e0977cc	0.13424605
76	0x3e654ea0	0.22393274
77	0xbeec4631	-0.46147302
78	0xbe8f1436	-0.27945107
79	0xbf03e1f5	-0.5151666
80	0x3e70c3d3	0.23512201
81	0x3e413da7	0.18871175
82	0xbe1356fc	-0.1438865
83	0x3f0e96e5	0.55698997
84	0x3ea07453	0.31338748
85	0x3e1757fc	0.14779657
86	0xbf2f2bcd	-0.6842621
87	0xbdc939b9	-0.09825463
88	0xbe116638	-0.1419915
89	0xbf036de6	-0.51339567
90	0xbe47209a	-0.1944603
91	0x3e6c37eb	0.23068206
92	0xbe580f90	-0.21099687
93	0xbe75e506	-0.24013147
94	0x3e78ed0e	0.24309179
95	0xbe5792cb	-0.21052091
96	0x3e8956d6	0.26824063
97	0x3e2f4be1	0.1711879
98	0xbed0bb06	-0.40767688
99	0x3e84e88c	0.2595867
100	0xbea2d655	-0.31804147
101	0x3e12c772	0.14333895
102	0xbd139d19	-0.036038492
103	0x3eb84812	0.35992485
104	0xbf0ecb3b	-0.55778855
105	0xbed4c04a	-0.41552955
106	0xbe90695e	-0.2820539
107	0x3e87ea1b	0.26545796
108	0xbec91a97	-0.392781
109	0xbdd33ec6	-0.103147075
110	0x3f137b18	0.576097
111	0xbdac9b66	-0.084280774
112	0x3f099037	0.5373568
113	0x3d7aa83b	0.061195593
114	0xbddd024b	-0.10791453
115	0xbe9ae334	-0.30251467
116	0xbec9f8e9	-0.39447716
117	0x3de8489a	0.11341973
118	0x3ec51e16	0.38499516
119	0xbc638742	-0.013887228
120	0x3ec18050	0.37793207
121	0x3dbe5286	0.09293084
122	0xbf13df4b	-0.57762593
123	0xbe3c36d9	-0.18380298
124	0xbe2d0f17	-0.16900288
125	0x3e90cfb6	0.2828347
126	0xbd50a34e	-0.05093699
127	0xbf13d03e	-0.5773963
128	0xbe5d280d	-0.2159731
129	0x3d36fe33	0.044676017
130	0xbf01abb7	-0.5065264
131	0xbe7098e0	-0.23495817
132	0xbeb9d72a	-0.3629697
133	0xbeb630ba	-0.3558405
134	0xbe757c8d	-0.23973294
135	0xbef29f59	-0.47387198
136	0x3df69cc9	0.12041623
137	0xbc57db00	-0.013174772
138	0x3c3c13a3	0.011479291
139	0xbe31358c	-0.17305583
140	0x3ecec07b	0.40381226
141	0x3e317787	0.17330752
142	0x3e6d8361	0.23194648
143	0xbcc255cc	-0.023722552
144	0xbdab4c68	-0.08364183
145	0x3f26b1d2	0.6511508
146	0x3d00371a	0.03130255
147	0x3e1289e1	0.14310409
148	0x3e567ed2	0.20946816
149	0x3f0aa34b	0.54155415
150	0xbe01ed49	-0.12688173
151	0x3e212dc8	0.1574012
152	0xbe0d164c	-0.13778037
153	0x3f160b53	0.5861103
154	0x3ebf99e7	0.37422106
155	0x3d8d6535	0.06904069
156	0x3e34843f	0.17628573
157	0x3e9b7402	0.30361944
158	0xbe183a6b	-0.14866035
159	0xbe83c2d5	-0.25734583
160	0x3e52591b	0.20541804
161	0xbc16d4ee	-0.00920604
162	0xbe9bca98	-0.30428004
163	0x3eae74c9	0.34073475
164	0xbbcc6eb4	-0.006238783
165	0xbed7d9e3	-0.42158422
166	0xbe85ad11	-0.26108602
167	0xbe2d2e70	-0.16912246
168	0x3e7c87f7	0.24661241
169	0xbe01cf7c	-0.12676805
170	0x3e7f97bf	0.2496023
171	0xbed6a21b	-0.41920552
172	0x3e688f40	0.22710896
173	0x3d333ec1	0.04376102
174	0x3e8d7bcc	0.27633512
175	0x3ece4a9e	0.40291303
176	0x3e7e63d1	0.24842764
177	0x3e296154	0.16541034
178	0xbe42882e	-0.18997261
179	0xbe9f0162	-0.31055743
180	0x3d5a73ff	0.05333328
181	0xbe0d7afc	-0.13816446
182	0xbea12ca0	-0.3147936
183	0xbee5eb37	-0.44906017
184	0x3d5e24a2	0.054234155
185	0xbd07cb17	-0.033152666
186	0xbe98b436	-0.2982499
187	0x3ed45a73	0.41475257
188	0x3f04ae09	0.51828057
189	0x3dd0bbbb	0.10192057
190	0x3ec8680e	0.39141887
191	0x3ddfff5c	0.10937378
192	0x3da23c7d	0.079216935
193	0x3e15b399	0.14619292
194	0x3e6829c3	0.22672181
195	0xbe5ea140	-0.217412
196	0x3e2631f0	0.16229987
197	0xbe2332d7	-0.15937363
198	0xbef201fd	-0.47267142
199	0xbefc9e05	-0.4933931
200	0xbc1a7f1e	-0.009429721
201	0x3e3a38f6	0.18185791
202	0xbced57f1	-0.028972598
203	0xbd1c3672	-0.03813786
204	0x3d8d363a	0.068951085
205	0xbde6b134	-0.112642676
206	0xbeee0443	-0.46487626
207	0x3dc33852	0.095322266
208	0x3e073d3b	0.13206951
209	0xbe735e7e	-0.23766515
210	0x3e92fcb7	0.2870843
211	0x3df9c983	0.121966384
212	0xbf1a9162	-0.60378087
213	0x3ec43ca7	0.38327524
214	0xbe0a218e	-0.13489363
215	0xbdd2e5a9	-0.102977104
216	0xbea44201	-0.32081607
217	0x3e97769f	0.29582688
218	0xbe19ab03	-0.15006642
219	0xbd48b838	-0.04900381
220	0x3e9753ea	0.2955621
221	0x3f15700d	0.583741
222	0x3e4c15cc	0.1993019
223	0xbe7b09a6	-0.245154
224	0xbe8cfc50	-0.2753625
225	0xbf298813	-0.6622326
226	0xbdf2f9af	-0.118640296
227	0xbe93e75d	-0.28887454
228	0x3d7d5ab8	0.061854094
229	0xbe283fb5	-0.16430552
230	0x3e7f62c7	0.24940024
231	0xbe1dcc98	-0.15410078
232	0xbe82c44a	-0.25540382
233	0x3c7cdc3c	0.015433367
234	0x3eab8c9c	0.33505714
235	0xbd28a3c5	-0.041171808
236	0xbe882706	-0.26592273
237	0xbe154723	-0.14577918
238	0xbda4eff1	-0.08053578
239	0xbe5c443f	-0.21510409
240	0xbe8c9cec	-0.27463472
241	0xbecf1f90	-0.40453768
242	0x3d49a1d8	0.04922661
243	0x3e4b6deb	0.19866149
244	0x3de2a30a	0.110662535
245	0x3eb3865f	0.35063455
246	0xbede41ef	-0.43409678
247	0xbe6fdb5c	-0.23423523
248	0x3e282fd6	0.16424498
249	0x3d144f9f	0.036208745
250	0x3e53ae8f	0.20672058
251	0x3decf517	0.11570185
252	0x3ea04b23	0.31307325
253	0x3e6fa276	0.23401818
254	0xbdcc4adb	-0.09975215
255	0xbd71765a	-0.05895076

bias f4 [10]
0	0xbe8537a2	-0.26019007
1	0x3ab05738	0.0013453728
2	0x3dd27c27	0.102775864
3	0xbcc20a5d	-0.023686582
4	0x3e44bf3c	0.19213575
5	0x3f14ae25	0.58078223
6	0x3c4bcf8f	0.012439623
7	0xbcdc41e7	-0.026886893
8	0xbf03daa3	-0.5150549
9	0xbe5aa919	-0.21353568
