DigitRecognition/part2-mnist/mnist_model_fully_connected.pt (torch_old, 922458 bytes, 8 tensors)

weight f4 [32, 1, 3, 3]
000000 44 ce a9 3e ba d8 92 bc 2b 53 44 bf 0c 12 2c 3e
       0.3316518 -0.017925609 -0.76689404 0.1680376
000010 d5 70 6a 3f cd 4d 41 3e c4 4a 39 bf c4 6b a2 3e
       0.9157842 0.18877335 -0.7237971 0.31722844
000020 36 1a 9e 3d 3f ce 08 bf f6 86 95 3e c5 73 1b 3e
       0.07719843 -0.53439707 0.2920453 0.15180881
000030 ee 9c a5 be 22 6c 03 3e 0a 5e aa 3e 6c 12 e4 be
       -0.3234629 0.12834218 0.3327487 -0.44545305
000040 31 61 58 3e f5 bf a6 3e 17 3c 80 be 53 cc 11 be
       0.21130826 0.32568327 -0.25045845 -0.142381
000050 ae 93 41 be 67 13 c6 be 55 5e 8e be d6 b9 2f 3c
       -0.18903992 -0.38686678 -0.27806345 0.010725459
000060 56 2b 84 be 9d 48 99 3e c8 97 ce 3e 57 37 35 be
       -0.25814313 0.29938212 0.40350175 -0.17696892
000070 fd 68 9a be ad 5f 1d 3d 57 3e b4 3a 71 7d 16 3e
       -0.30158225 0.03842132 0.0013751489 0.1469629
000080 47 77 8c 3d 9e e8 a0 be 3d 7a 66 bb 1d 56 b6 3e
       0.06858688 -0.31427473 -0.0035168075 0.35612574
000090 5b 8c 48 3e a8 69 ea 3e 68 12 50 bd 62 ba b3 3c
       0.19584791 0.45783734 -0.050798804 0.02193946
0000a0 83 a9 9b bd 37 52 1d bf 7d 3e c4 3e a3 3b ee bd
       -0.07600691 -0.61453575 0.38328925 -0.116324686
0000b0 e2 15 db bb db f7 d4 3d 60 cc 02 bf c3 66 8d be
       -0.0066859582 0.10398837 -0.510931 -0.27617463
0000c0 68 ae a4 3e fc ee 17 bf b0 66 02 bf 29 c7 3f 3f
       0.3216431 -0.59349036 -0.5093794 0.7491327
0000d0 a5 83 14 3f c2 00 b0 3e 5b 38 61 be 47 74 39 bf
       0.58013374 0.34375578 -0.21994154 -0.7244305
0000e0 c8 ec d8 be 4d 98 cf be af a7 11 3d 56 b2 27 3f
       -0.4236815 -0.40545884 0.035560306 0.65506494
0000f0 4d 4a 2c 3f e7 81 15 3f 09 d4 63 be b8 f7 2f 3e
       0.67300874 0.5840134 -0.22248854 0.17184341
000100 2b a1 c5 be f5 00 43 be 98 3b be 3e 63 3f e4 bd
       -0.38599524 -0.19043334 0.3715484 -0.111449026
000110 6b 1e 25 3e 24 70 7f 3e e2 39 9b bd 4e e3 0b 3e
       0.16124885 0.24945122 -0.075794 0.13660929
000120 e0 d4 eb 3e aa a8 bb be ee 87 29 bf 82 7b 9f 3e
       0.46060848 -0.36652118 -0.6622304 0.31148916
000130 cc 0a d8 3e fd f0 9a 3c 44 8a 8a bd 17 df 99 3e
       0.42195737 0.01891374 -0.06764653 0.30053017
000140 2b b7 3c 3e b6 cc 42 be e3 b8 3a 3e 27 00 69 be
       0.18429248 -0.19023404 0.18234591 -0.22753964
000150 27 49 42 3e a3 c7 85 3d 38 0b 29 bf 2a 85 e5 3e
       0.18973218 0.06532218 -0.66032743 0.4482816
000160 1d 6e fc 3e 5f 81 e4 be a3 fb 88 bd 33 e1 02 3e
       0.4930276 -0.44629952 -0.06688621 0.12781219
000170 91 62 86 bd 84 ec 69 bd 46 5a 62 be ca 02 63 3e
       -0.06561769 -0.057110325 -0.22104749 0.22169033
000180 1a 13 a1 be d0 11 84 3e ce d7 59 bd b1 dc b5 3a
       -0.31459886 0.2579484 -0.053184323 0.0013874975
000190 bb 40 d4 be 59 a7 65 be 32 54 03 bf 6c 7a d2 bd
       -0.41455635 -0.2242712 -0.51300347 -0.10277256
0001a0 63 de 8a be 03 61 bd be e4 34 06 be fb 48 5b bc
       -0.27122793 -0.36988077 -0.13106114 -0.013384099
0001b0 8a 02 1e be c4 97 61 be af f7 e2 bd bd a7 67 be
       -0.15430656 -0.2203055 -0.11082398 -0.22622581
0001c0 1e 60 be be 04 23 a0 be 55 24 aa 3e 15 f8 f4 3d
       -0.37182707 -0.31276715 0.33230844 0.119613804
0001d0 5e f8 98 be 7b 3e 8c 3e aa 94 da bd 98 93 fd be
       -0.2987699 0.2739142 -0.10672887 -0.49526668
0001e0 34 6d 63 be c6 8f 23 be af 91 8a be 28 60 e4 3e
       -0.22209626 -0.15972814 -0.27064273 0.4460461
0001f0 a5 57 13 3e 10 f8 0d 3f a8 5f 84 be 48 37 74 be
       0.14388902 0.5545664 -0.2585423 -0.23849213
000200 7b 6d f1 3d 63 c5 0a 3f d3 4b fa 3e 53 8b d9 3e
       0.1178846 0.5420744 0.48885974 0.42489108
000210 1f 30 8c be 21 fd b0 be ab fd 03 bf 90 d5 e4 be
       -0.27380463 -0.34568122 -0.5155894 -0.44694185
000220 d1 0f 16 bf 68 aa c1 be 4c ed 93 bc fd 85 79 3e
       -0.58617884 -0.37825322 -0.018057488 0.24367519
000230 ec 3c 66 3e 77 42 ea bc 2b 55 c5 3e d7 73 31 3e
       0.22484177 -0.028596146 0.3854154 0.17329346
000240 a1 01 0e bf 6e 62 31 3e c6 53 fb 3e 20 a4 26 bf
       -0.55471236 0.17322704 0.49087352 -0.65094185
000250 45 11 8c 3e 18 ee c5 3e bb 3d f0 be f0 df 44 3e
       0.27356926 0.38658214 -0.46922097 0.1922605
000260 5d f8 43 3c 04 97 2e bf 88 b4 0a 3f 7e b0 ec 3e
       0.01196107 -0.6819918 0.5418172 0.46228403
000270 80 95 f6 3b 83 82 84 3f ab ff d4 be 7b 97 0a 3f
       0.007525146 1.0352329 -0.4160131 0.5413739
000280 e8 77 ca 3e b7 84 63 bf 81 e0 5c 3f 77 02 e5 3e
       0.39544606 -0.8887438 0.86280066 0.44728443
000290 35 ed 25 3f bc 91 4c be 4f fb b9 3e a4 b1 5f 3c
       0.64815074 -0.19977468 0.36324546 0.013653193
0002a0 ce ac 63 bf e6 4a 82 bf 47 8d 4a be 1d 36 01 3e
       -0.88935554 -1.0179107 -0.19780456 0.12618299
0002b0 5b 90 93 3c de fb 25 bc 34 94 5d be 90 a6 1c be
       0.01801317 -0.010130851 -0.21638566 -0.15297914
0002c0 6f c1 a2 be da 9b 89 be dc ef 85 be e7 0e 27 3e
       -0.31788203 -0.26876718 -0.2615956 0.16314279
0002d0 0b c6 2d 3f d3 71 10 3f eb 3b bc be dd 5f f1 3e
       0.67880315 0.5642368 -0.36764464 0.4714345
0002e0 5f 89 0d bf b9 ec 15 bf 16 3b 57 be 7e 9d 01 bf
       -0.55287737 -0.58564335 -0.21018633 -0.5063094
0002f0 17 87 c8 bd b6 f2 8d 3e 7d 04 6d 3c 77 16 c3 be
       -0.09791391 0.27724236 0.014466402 -0.38103077
000300 61 9e e6 3e c3 7e 8b be 6e 77 5c be 4f f5 64 3e
       0.4504271 -0.2724515 -0.21529934 0.22359203
000310 3a 54 0c 3d 1e 60 8e be 35 1e ea 3c 69 ab ab bc
       0.034260012 -0.27807707 0.028578857 -0.020955758
000320 df 64 3c be a0 3b 4e be 69 d9 51 3e 8e a6 58 be
       -0.18397854 -0.20139933 0.20493092 -0.21157286
000330 de fa 16 be 79 60 b4 3d 3c a7 ee bc 1d 43 9a be
       -0.14744136 0.08807463 -0.029132478 -0.30129328
000340 9b 77 a9 3e 79 25 bb bc f0 10 d6 be de 6d 85 3e
       0.33099064 -0.022845017 -0.41809797 0.26060385
000350 61 c0 3e 3e 67 63 f9 be 2d c4 91 3e db 10 0f 3d
       0.18628074 -0.4870865 0.28469983 0.034928184
000360 f2 06 1b be cc 36 bb 3e a3 4c 63 3e 4c cc e8 bc
       -0.15139368 0.36565244 0.22197203 -0.028417729
000370 be 51 10 3d e4 9f ec 3e ef 63 06 bf 52 f0 ca be
       0.035234205 0.46215737 -0.52496237 -0.39636475
000380 5f 18 4a bd 0e af 44 be ee b4 55 3e 68 78 b7 be
       -0.04933965 -0.19207403 0.208698 -0.3583405
000390 81 d6 6b 3e 49 ea c6 3e 7a 2f 11 be 45 d9 1a be
       0.23031045 0.3885062 -0.14178267 -0.15121944
0003a0 07 1a dc 3d c8 15 e2 3d 02 20 80 be 85 87 20 be
       0.10747152 0.11039311 -0.2502442 -0.15676697
0003b0 c4 fb 77 be 8d 60 d1 3e 7a 84 69 be 96 7f d5 be
       -0.24217135 0.40893975 -0.22804442 -0.41698903
0003c0 40 db c2 bd ff b7 d4 3e 0c 7f 1c 3f b6 9d b9 3e
       -0.09514475 0.41546628 0.6113136 0.36253136
0003d0 27 45 c3 3c 99 37 89 be c5 d0 dd 3a 60 19 28 3e
       0.023836685 -0.2680023 0.001692318 0.1641593
0003e0 0c ea 6c be 54 59 b9 be c0 df bf bd 3e 33 7e be
       -0.23136157 -0.36200964 -0.09368849 -0.24824235
0003f0 3a 54 0a bf 9d fa 15 bf 48 50 10 3e 82 a7 ea be
       -0.5403477 -0.5858553 0.14093125 -0.45830923

bias f4 [32]
000000 24 26 af be ab 13 d4 bd 9a 4b 23 3e 9f 3b f1 bd
       -0.34208786 -0.10355314 0.15946808 -0.1177895
000010 9e e4 54 be 4a 08 68 be 5d ff c1 bd 4d 1e 09 be
       -0.20790336 -0.22659412 -0.09472535 -0.13390465
000020 14 ea bf be 41 04 f3 bc 6c c2 a1 be 60 20 01 3f
       -0.37483275 -0.029665114 -0.31593645 0.50440025
000030 0b 86 7b 3e 62 7b 09 be d3 f9 94 bc 57 c6 2f 3d
       0.24562852 -0.13425973 -0.018185532 0.04291376
000040 d1 bb 1d bd 0b f6 14 bf 28 e2 b2 bd c8 ea 0a be
       -0.038509194 -0.5818793 -0.08734542 -0.13566124
000050 bb 70 96 3d f4 20 cf bc ca 8e a0 bd 77 76 64 3d
       0.073457204 -0.025284268 -0.07839735 0.05577704
000060 49 4b 83 bd fc 8f 09 be 69 95 b7 bc 8b 82 7b bc
       -0.06410844 -0.13433832 -0.022410112 -0.015350948
000070 65 ae 88 be 28 f2 19 be 71 af 45 be 71 4a 91 3d
       -0.26695552 -0.15033782 -0.19305207 0.07094277

weight f4 [64, 32, 3, 3]
000000 ea 33 4c bd 14 07 a8 3d 70 98 71 3d 11 e4 7e bb
       -0.049854197 0.08204475 0.058983266 -0.0038893262
000010 28 c3 a1 bd 30 b5 90 bd 9e aa ad ba a0 24 7c 3d
       -0.07898551 -0.07065809 -0.00132497 0.061558366
000020 05 46 9a bc 7b 43 ad bd 9d 66 d0 3d 16 d4 48 3e
       -0.018832216 -0.084601365 0.10175822 0.19612154
000030 6b ac c2 bd d2 1e 4e bd b0 54 a1 bd 19 b8 bc 3c
       -0.09505542 -0.05032236 -0.07877481 0.023037003
000040 5e 70 bf 3c 80 c4 b6 bc 16 91 8c 3c 7a 2b 48 bd
       0.02336901 -0.022310495 0.017159026 -0.048869587
000050 aa d6 9a bd 89 e8 6c ba 1a 12 60 bd 8a d6 9d ba
       -0.07560475 -0.0009037336 -0.054704763 -0.0012042087
000060 89 ba 6d bd d4 0c ed 3c 84 86 18 3d 25 97 17 3d
       -0.058039222 0.028936781 0.03723766 0.037009377
000070 28 9a 65 3c d0 af 58 3c e3 4d 73 3d 98 f0 a2 bd
       0.0140138045 0.013225511 0.05940045 -0.07956046
000080 fa 4f b6 3b 7f b8 9e bc a1 7f 07 bd 1f 09 8c 3d
       0.005563733 -0.019375084 -0.0330807 0.06837677
000090 77 2b 48 bd 49 87 7c bd f9 51 42 3b 8c d5 bb bd
       -0.048869576 -0.061652455 0.002965091 -0.0917159
0000a0 8e 9b f5 ba 44 c2 36 bd f3 15 5a bc 7c 0f 88 bc
       -0.0018738376 -0.04461886 -0.013310897 -0.016608946
0000b0 30 8e f4 3b 4c d2 82 3c ca df a1 bd e1 5b 00 be
       0.007463239 0.015969418 -0.079040125 -0.12535049
0000c0 58 58 b0 3d e1 e7 26 3e a1 ee 43 3c 4c 82 e1 3c
       0.086106 0.16299392 0.011958749 0.02752795
0000d0 29 b4 46 3d 44 48 10 3c 3f 1d 86 bd 1f 3e 98 bc
       0.048511658 0.008806292 -0.06548547 -0.01858431
0000e0 1d b8 2d bd b7 48 ef 3c e7 d2 37 bd 24 86 96 bd
       -0.042411912 0.029209478 -0.044878867 -0.07349804
0000f0 ca 3d 2a bc 61 49 8b 3d 5a 1d bd 3c 3c 67 92 bd
       -0.010390708 0.06801105 0.023085285 -0.07148597
000100 03 a1 83 3c e4 92 0e 3b b3 13 da bc 17 50 82 3d
       0.016067987 0.0021755034 -0.026620721 0.06362932
000110 b9 f8 c5 ba 4c e2 68 3c 24 f9 2c 3b 22 6e 46 bc
       -0.0015104032 0.01421411 0.0026393617 -0.012111219
000120 40 b6 00 bd 00 76 c0 bc 96 e1 9c bb 45 d2 9a bd
       -0.031423807 -0.023493767 -0.004787634 -0.07559637
000130 f8 78 42 3c 6e 60 ee bb 1c c0 a8 ba b2 2b a7 3c
       0.0118696615 -0.007274679 -0.0012874636 0.020406578
000140 cd 15 0b bd bd fb 9c bd ed 21 6a bd 76 ae 93 bc
       -0.033956338 -0.07665203 -0.05716126 -0.018027525
000150 79 55 3c 3d a4 46 80 bc 25 84 a1 bd d1 b3 76 3c
       0.04597995 -0.015658684 -0.07886533 0.01505752
000160 0b 9c 14 3d 6a e3 4b 3d b2 85 98 3c d3 be 23 3d
       0.036281627 0.049777426 0.018618438 0.039976906
000170 42 25 17 bd b7 6a f3 bb 0d d5 21 bd 4e 47 66 bd
       -0.036900766 -0.007428493 -0.03950982 -0.056220345
000180 b4 86 0b bb 69 c7 14 bd 3c 4c bd 3c 70 d5 c1 3c
       -0.0021290006 -0.036322985 0.02310764 0.023661345
000190 b9 12 c2 bd a0 25 e5 bd 4c 25 57 bd 60 68 4e bc
       -0.09476227 -0.11188817 -0.052525803 -0.012598127
0001a0 36 25 c9 bd e4 39 4a 3c da cc 77 bd 91 74 4c bd
       -0.098215505 0.012342904 -0.060498096 -0.049915854
0001b0 72 33 5f 3d 6b 87 5f bd 67 4f de bd 15 8d c6 bc
       0.05449242 -0.054572504 -0.108549885 -0.024237195
0001c0 0e 54 25 bd 91 dd c8 bb 98 b7 4e bc 32 76 4c 3c
       -0.040363364 -0.0061299284 -0.012617014 0.012479352
0001d0 2c 5e 98 bd ee 90 0c bd 1e b5 af bd 36 06 a4 bd
       -0.07439837 -0.034317903 -0.08579467 -0.08008997
0001e0 9d 9a a9 3b 4a 12 1d ba f8 ed 03 bd fa 36 ea bc
       0.005175902 -0.00059918 -0.032209367 -0.028590668
0001f0 8a 89 49 3c d3 46 07 3d 0e 66 e5 3c 39 a6 a0 3c
       0.012300858 0.033026528 0.028002765 0.019610511
000200 f1 3b 76 3d 1e 74 62 bd 46 15 6c bd 78 30 18 3d
       0.06011576 -0.05528652 -0.057637475 0.0371556
000210 8d d6 a9 3c 0c 2f 08 bc 59 e9 db bd 03 bb a5 bd
       0.020732189 -0.008311998 -0.10737867 -0.0809231
000220 33 a6 d8 bc 9a ac 53 bc ba da 22 3d 17 db 8a bd
       -0.026446437 -0.012919569 0.039759375 -0.06780069
000230 cc 43 f9 bd 43 31 26 bd ff e6 4c 3b e7 2a a2 3d
       -0.12171134 -0.040574323 0.0031265614 0.07918339
000240 4f 15 45 bc bb 0b 35 3e 13 27 b8 3d 2d 0f 1f bd
       -0.012029006 0.17680256 0.08991828 -0.038832832
000250 87 1d 87 bd c1 68 2f bd ff fa be bb 2f c5 92 bd
       -0.06597429 -0.04282451 -0.005828261 -0.07166516
000260 9f 51 b0 bc ff ea d0 bd 05 bb f2 bc 6d 96 ed 3d
       -0.021523295 -0.10201072 -0.029630193 0.11600957
000270 e8 d8 30 bd 49 06 05 be 6c 02 0d be a2 54 1d bd
       -0.043175608 -0.12990679 -0.13770455 -0.03841079
000280 8c f0 1f bd 11 2b 14 3d 83 2c 69 bd 2c f0 15 3d
       -0.039047763 0.036173884 -0.056927215 0.036606
000290 6a 86 13 3e ba 24 dd bd 95 49 a9 3d 35 c8 00 3e
       0.14406744 -0.10798021 0.08265988 0.12576373
0002a0 2e df b8 bd ba 17 37 bb 33 67 aa bd 5c 2e 1b 3d
       -0.09026943 -0.0027937726 -0.08320465 0.03788601
0002b0 86 00 5a 3d ec cf c7 bc d3 e3 34 bd 6e df 9c bc
       0.053223155 -0.024391137 -0.044162583 -0.019149508
0002c0 e4 9d 57 bd a4 e4 35 3d 73 99 33 3c fe c1 d9 3c
       -0.05264081 0.0444075 0.010961878 0.02658176
0002d0 97 4d 22 be 96 2c 76 bd 00 5a fa bc 71 20 02 be
       -0.1584991 -0.060101114 -0.030560493 -0.12707688
0002e0 19 7c 8f bd 01 92 a3 bc 2f ce a1 bd b5 35 cf bd
       -0.070060916 -0.019967081 -0.079006545 -0.10117666
0002f0 19 f6 a7 bd 6a 55 df bd 53 ce 88 3b 92 71 4a bd
       -0.08201236 -0.10904963 0.0041749864 -0.049424715
000300 da 6d 3f 3c d5 b6 a5 bb 74 5c 48 bd 20 7d 03 bd
       0.0116839055 -0.0050571957 -0.048916295 -0.03210175
000310 be 62 a8 3c 5a 4e 9e bd 42 51 25 3d 4f ae 6f 3c
       0.020554896 -0.07729788 0.040360697 0.014628961
000320 d4 d0 aa 3c b5 20 3e 3c 92 a8 5e 3d 20 ad a9 3c
       0.02085153 0.011604478 0.05435998 0.020712435
000330 a9 98 de bc 53 4e 36 3d 46 90 65 bc 9a 35 52 bc
       -0.027172403 0.04450829 -0.014011448 -0.012830162
000340 e1 5f 13 3d 42 b3 91 bb 58 22 65 bd 53 0d 8c bc
       0.03598011 -0.004446418 -0.055940956 -0.017096197
000350 77 01 3a bd 75 e4 81 bd 23 88 4f bc 3e 01 d6 bc
       -0.045411553 -0.06342403 -0.012666735 -0.02612364
000360 c9 34 19 bd 6c 57 ab 3d 0a df bc 3d 82 95 dd bc
       -0.037403855 0.08366284 0.09222229 -0.02704883
000370 cf 6c d7 3c 15 38 ac 3d 86 0f 2e 3d 88 e8 94 bc
       0.026297001 0.08409134 0.042495273 -0.018177286
000380 e4 0b a3 bd 67 e6 b1 bd 13 c6 f8 3c f9 00 c2 3d
       -0.07961252 -0.08686524 0.030367887 0.09472842
000390 cd 93 5d 3d a4 1f 1f bd 3c 7b 59 ba 67 cc 1e 3d
       0.054096032 -0.038848534 -0.00082962564 0.038769152
0003a0 6b 4c 43 bd e1 7b cd 3c c1 67 ba bd 6d 66 91 bd
       -0.0476803 0.025083484 -0.09101821 -0.07099614
0003b0 d2 e8 83 bc 72 df f0 3d a2 e5 fb 3a 9f f8 dd bc
       -0.016102228 0.11761369 0.0019218216 -0.02709609
0003c0 6e 19 24 3d b9 62 d1 3d 17 13 a2 3d af f6 ae bb
       0.040063314 0.10223908 0.07913797 -0.0053394656
0003d0 8f e3 f3 39 cc 7b 08 bd cb 1b 8e bc c6 b5 f1 bc
       0.00046518116 -0.033321187 -0.017347237 -0.029505622
0003e0 93 17 a6 3c f4 2e a0 3c 46 34 0b 3d e3 7e 4c bd
       0.020274913 0.019553639 0.0339854 -0.049925696
0003f0 78 62 3b bd 6a d4 02 bc 05 1a bc 3d 19 83 0a 3d
       -0.045748204 -0.007985214 0.0918465 0.03381643

bias f4 [64]
000000 b5 e5 0b bd 74 ee 91 3c 62 3f dc 3c 9f d9 30 bd
       -0.034154613 0.017813899 0.026885692 -0.04317629
000010 0f de d6 bc f1 32 15 bc 15 c9 af bd e2 79 62 be
       -0.026228933 -0.009106384 -0.08583275 -0.22116807
000020 b1 01 3b bd 74 8c 6d be ad a6 46 bd 9d d7 1d bd
       -0.04565591 -0.2319811 -0.0484988 -0.038535703
000030 86 9d b4 bc 82 d9 fc bd 95 cd 16 be 74 b7 ac bd
       -0.02204777 -0.12346174 -0.14726861 -0.084334284
000040 44 1a 5d bd 5f 76 28 bd 18 2d bc bd b2 41 7b bd
       -0.053980127 -0.041128512 -0.091882885 -0.06134195
000050 65 52 e0 bd bd c0 31 bd f9 ab 3c bd 79 68 3e bd
       -0.109532155 -0.0433967 -0.046062443 -0.04648635
000060 cf 7e 96 bd 33 54 54 bd ee 00 6c bd b8 c1 b7 bd
       -0.073484056 -0.05183811 -0.057618074 -0.08972496
000070 cd a0 21 be 73 8d 3c bc c6 9a 1e bd a6 1b eb bd
       -0.15783997 -0.0115083335 -0.038721822 -0.11479883
000080 70 ea a7 bd 8c 9b 8a be 37 b2 83 bd 37 e8 6f bd
       -0.08199012 -0.27071798 -0.06430476 -0.058571067
000090 69 0f 96 bd 86 ce ec bb a2 3a 22 bd 99 bf 0d bd
       -0.07327158 -0.007226768 -0.039606698 -0.03460655
0000a0 1c 4a 05 bd 2c 11 83 bd 83 9d 4f be 7f 07 26 bd
       -0.03254138 -0.0639976 -0.2027493 -0.040534493
0000b0 bd 7c 6f bd f3 af 7d bd f3 ee 14 3d 22 29 a5 bc
       -0.05846857 -0.061935376 0.036360692 -0.020161215
0000c0 1a 4d 3e bd 84 6b 45 be ac 50 a6 bc e1 67 8a bc
       -0.04646025 -0.19279295 -0.02030214 -0.016895236
0000d0 d3 91 9d bd 4e be 23 be 73 c5 34 bd 04 4b 3c bd
       -0.076938294 -0.15990564 -0.044133615 -0.045969978
0000e0 63 94 d0 bc 0b 87 5d be 99 ae f7 bc 73 eb 34 bd
       -0.025461381 -0.21633546 -0.030234622 -0.044169854
0000f0 65 9a 24 bd ac 93 6e be f5 32 21 bd 81 82 04 bd
       -0.040186305 -0.2329852 -0.039355237 -0.03235102

weight f4 [128, 1600]
000000 7d be a7 bc cc b9 88 bb 22 30 20 3d 57 9f f3 3c
       -0.020476574 -0.0041725393 0.039108403 0.029739065
000010 ea b0 03 3d 22 78 4f 3c ed e8 96 bc fc 44 73 bc
       0.03215114 0.012662919 -0.018421615 -0.01484799
000020 57 93 20 3c e8 34 c8 3b 3d 87 20 bd ce c9 27 bd
       0.009800754 0.0061098225 -0.039191473 -0.04096394
000030 23 29 3a 3c 66 d9 a6 3b c8 65 c5 3c bf 31 63 3c
       0.011362347 0.005091834 0.024096385 0.013866841
000040 65 8e 9e 3d a3 2a 4d 3d 57 b5 76 3c 8b 6f 2d 3c
       0.07742003 0.05008949 0.015057883 0.010585676
000050 71 4e c0 bb c2 a4 d8 3c e1 3a ee 3c e5 6a 03 3c
       -0.005868726 0.02644575 0.02908081 0.008021091
000060 57 da d4 bb 2e 34 8a bc b3 3e 8f 3a 01 6e 5f ba
       -0.0064957547 -0.016870584 0.001092872 -0.0008523167
000070 23 d9 93 3c 2d 95 b2 bc 93 68 a8 bc be 48 fc bb
       0.018047875 -0.021799648 -0.020557677 -0.007699101
000080 4f d7 62 3c ad 98 dd 3c df 04 40 3b dd 80 01 bc
       0.013845279 0.02705034 0.0029299778 -0.007904259
000090 be e3 0d bd a9 c0 4b 3c c2 f3 0e 3d c0 09 95 3c
       -0.03464102 0.0124360705 0.034900434 0.018193126
0000a0 1f 6e c9 bc e8 de 1c bc f3 2c 70 3b 0c cf b8 bc
       -0.024588643 -0.009574629 0.0036647886 -0.022559665
0000b0 63 53 00 bc 9a cc 89 3c bb 47 78 bc b3 10 b6 3c
       -0.007832381 0.016821194 -0.015153821 0.02222476
0000c0 20 21 93 b9 ec 77 0a bd 22 cc e4 bb 9b ef e7 3a
       -0.00028062705 -0.033805773 -0.0069823423 0.0017695309
0000d0 fe 03 da 3c 75 70 65 bc ba af 22 3c f5 71 76 bc
       0.026613232 -0.014003863 0.009929592 -0.015041818
0000e0 fa 61 5a bc 1e 0f af 3c 6e d1 cc bb f4 b2 aa b8
       -0.0133290235 0.021369513 -0.006250552 -8.139564e-05
0000f0 56 e6 dd bb 5e e1 9b bc cb b6 16 bc e0 43 1a 3c
       -0.006771843 -0.019028362 -0.009198855 0.009415597
000100 c7 eb 4b bc d3 5e 65 bc 2c 49 10 bb 32 cd f5 bc
       -0.01244635 -0.013999659 -0.002201627 -0.030005071
000110 af 32 2f bc 4e 82 a6 bc 29 34 ad 3c 64 b0 59 bc
       -0.010693236 -0.020325806 0.021143036 -0.013286684
000120 2b 39 9d 3b 6e 74 d7 bb d0 02 09 bd 5a 59 03 bd
       0.0047980747 -0.006575159 -0.033449948 -0.032067634
000130 11 b7 50 bc 11 6e 91 bc 20 4f 6b bd 65 2c a4 3c
       -0.012738959 -0.017752679 -0.057448506 0.0200407
000140 24 ae 71 3c b7 a6 11 3c 60 8f 31 bc 79 83 33 bd
       0.014750991 0.008889846 -0.010837406 -0.043826554
000150 0e 0e 9f 3c e1 3e 14 3c b6 85 20 3d a3 ff 55 3b
       0.019415881 0.009048195 0.039190017 0.0032653592
000160 d9 3e d2 bb df 6e 17 bc 1b ef b8 bb 9e 15 4a bd
       -0.0064161834 -0.009242742 -0.005643738 -0.049337022
000170 dc da ec 3c 90 89 e3 b7 97 71 69 3b d7 21 96 3c
       0.028912954 -2.7124566e-05 0.0035620683 0.018326683
000180 5a 6e c1 bc cd 41 e9 3b 40 36 90 bc 8d bd 23 bc
       -0.02361219 0.00711844 -0.017603993 -0.009993923
000190 4e b1 52 3d eb a3 59 3c 7b 02 22 3d 6f 45 ad 3d
       0.051438622 0.01328371 0.039553147 0.08460509
0001a0 0d 7b 38 3d db 99 9d bc 8a 34 3c bd 30 d5 2f 3d
       0.045039225 -0.019238403 -0.045948543 0.04292792
0001b0 27 30 fa 3c f0 d2 4b bc 20 da 22 bd ed 4b 66 bd
       0.030540539 -0.012440428 -0.0397588 -0.056224752
0001c0 db 96 5d bc ad 58 bb bc 36 04 28 bd 47 53 0c bd
       -0.013524736 -0.022869432 -0.04101964 -0.034259107
0001d0 6f be df 3b 89 7d e9 3c 85 1e 0e 3b 30 12 07 bd
       0.0068281214 0.028502243 0.0021685672 -0.03297633
0001e0 5d 48 2d 3d d5 41 d8 3d 22 40 9b 3d de 50 29 3c
       0.04230534 0.105594315 0.07580592 0.010334222
0001f0 37 16 87 bd 10 d5 61 bc 92 72 90 3b 3e 97 29 3d
       -0.06596034 -0.013783708 0.004408189 0.041404
000200 a7 e4 c2 3c 71 17 01 bd d5 f9 f5 bc 7f 69 98 bb
       0.02379067 -0.031516496 -0.030026356 -0.004651248
000210 48 26 9e 3c 6d 84 47 3c e5 90 97 3a 11 4a 20 bd
       0.019305363 0.012177569 0.0011563568 -0.039133135
000220 c3 88 8c 3b 75 84 09 3d 21 79 bf 3c 59 99 d5 3a
       0.004288764 0.033573586 0.023373188 0.0016296312
000230 8a c5 8d bc b0 9d 9b 3d 82 56 75 bc f4 84 f5 bc
       -0.017306108 0.07598436 -0.014974238 -0.029970624
000240 50 31 0d bd ed 5b 54 3c 48 f9 11 3d 0c 64 c5 bc
       -0.034470856 0.01296137 0.035638124 -0.024095558
000250 73 ed 8f bc 6f 65 29 bd e7 63 87 bc 86 14 8e bb
       -0.01756928 -0.0413565 -0.01652713 -0.0043359427
000260 4b 7a ee bc 1f df 4d 3c e9 dc 94 3c a9 83 6e 3c
       -0.029111048 0.012565403 0.018171744 0.014557757
000270 61 af 86 3c 69 7f 17 3d 4c af 96 3c 0e 76 ff 3c
       0.016441049 0.036986742 0.018394135 0.031184223
000280 4b d6 18 bc 26 f7 d9 3c a9 44 1d 3c d1 04 96 3b
       -0.009328435 0.026607107 0.009598889 0.004578211
000290 ff 20 31 bc 3d b9 db bb da 25 c6 bc b7 b3 0b 3c
       -0.01081109 -0.0067054317 -0.02418797 0.008526734
0002a0 02 76 87 bc 74 54 00 bc eb 98 b7 3b f5 96 5d bb
       -0.016535763 -0.007832635 0.005602946 -0.0033811901
0002b0 7a 36 04 bc c6 d8 65 3c b5 98 2e bd f2 ec 8c 3b
       -0.008069629 0.014028734 -0.0426261 0.004300707
0002c0 07 66 ab 3c e7 28 b8 3c 95 56 df 3d e5 54 f1 3a
       0.020922674 0.022480441 0.10905186 0.0018412141
0002d0 41 4f 76 ba 20 b1 da 3c 06 6f 7d 3c c3 ea 59 3d
       -0.0009395965 0.026695788 0.015468365 0.0532024
0002e0 78 07 9a 3c f3 de 53 3b 5f 53 2e bc f8 ab a5 3c
       0.01880239 0.0032328933 -0.010639994 0.020223603
0002f0 4b 9a fe 3c b5 8f f3 bc 03 a6 22 bc 0f 06 c3 bc
       0.031079432 -0.02973161 -0.009927276 -0.0238066
000300 f7 12 07 bd ce 7c 21 bd 92 14 6e 3c b3 16 fb bb
       -0.03297707 -0.039425664 0.0145312715 -0.007662618
000310 ba 85 d2 bc f1 ec e2 bd 7b 6f 27 bd c2 2d da 3a
       -0.025698531 -0.11080349 -0.0408778 0.0016645717
000320 4d 35 d8 3b e8 c2 95 bc 93 b9 fb 3b 01 29 2b 3c
       0.006598151 -0.018281415 0.0076820343 0.010446788
000330 e3 b1 56 3a 7f c5 28 3c 63 2d 52 3c aa 48 37 bd
       0.00081899593 0.010300993 0.012828204 -0.044747032
000340 25 5a 02 bd cc 03 51 bd eb 7d 32 bc 5c d5 c3 bb
       -0.03182425 -0.05102901 -0.010894279 -0.005976362
000350 c4 69 8f 3c 50 72 f4 bc 61 9f 5d 3c b2 8b 0f 3d
       0.017506488 -0.029839665 0.013526768 0.035045333
000360 5d 8e 70 3d 67 91 2b 3d 26 57 9e 3c b2 e8 d3 bc
       0.05872952 0.041886713 0.019328665 -0.025867794
000370 fb 41 d5 3c 3d 81 03 3d c7 ce 98 3c df 1f 6f 3c
       0.026032439 0.032105673 0.018653287 0.014595001
000380 c5 64 08 bd 93 c5 e9 bc e9 e9 f6 3c 6a 44 2c 3d
       -0.033299226 -0.028536594 0.030140834 0.042057432
000390 4d f2 3d 3d 08 64 0d 3a ae e0 2e bc 01 a6 81 3c
       0.046373654 0.0005393629 -0.010673685 0.015826227
0003a0 12 98 05 bd 36 4f 89 3d 9f 8f 37 3d 3c df 20 bc
       -0.03261573 0.067045614 0.044814702 -0.009818848
0003b0 28 aa ce bc 2f 2a 61 bd a4 d7 e1 3c 18 7b 3e bc
       -0.025227621 -0.05497187 0.027568646 -0.0116260275
0003c0 1a 58 0a 3c 86 a3 0c bd 05 f8 0f bd 48 b3 33 bd
       0.008443857 -0.034335636 -0.03514864 -0.043872148
0003d0 8b 50 f5 bd 84 84 87 3c e5 9d a4 bc 48 37 5c bc
       -0.11978253 0.01654268 -0.020094821 -0.013440914
0003e0 da 1c 93 bd a7 2f 81 bd e1 e5 4e bc 9b 80 07 bb
       -0.071832374 -0.06307917 -0.01262805 -0.002067602
0003f0 28 49 00 bd d4 32 fc bb c2 63 19 3c f9 2f b3 3b
       -0.031319767 -0.007696489 0.009362163 0.0054683653

bias f4 [128]
000000 42 09 86 bd 99 c4 7b 3d 45 04 fb bc b1 1a 29 bc
       -0.065447345 0.061466787 -0.030641684 -0.010321305
000010 6b ba 59 bd ba 37 17 bd a3 c1 b7 bc dd 0b 6e bd
       -0.053156298 -0.03691838 -0.0224312 -0.058116782
000020 c5 44 eb 3c ea 6d 30 3d 53 5d 21 bb 44 4c b2 ba
       0.028719315 0.043073572 -0.0024622276 -0.0013603051
000030 7d 91 4a 3d dc d2 dc 3c 2b c7 1c bd 9f 7d 79 bd
       0.049455155 0.026956014 -0.03827588 -0.060910817
000040 27 fa 4e bd f3 a6 ad bc cc a8 34 bd 24 7c 64 bc
       -0.050531533 -0.021197772 -0.04410629 -0.013945613
000050 61 c3 8e bc e7 c0 5e 3c 44 f9 0f 3c 59 4c 15 bd
       -0.017427148 0.013595796 0.008787457 -0.036449764
000060 8d 03 43 bc bb 3c 00 3d f0 0c 2b 3d 78 6f 92 3c
       -0.011902702 0.031307917 0.041760385 0.017875418
000070 bd 36 95 bc 0e 35 7e bc 41 b1 87 3c b4 02 91 3d
       -0.018214578 -0.015515579 0.016564013 0.07080594
000080 bf c4 45 bd 70 71 34 bd c4 1c be bc 4f c3 b6 bd
       -0.048283335 -0.044053495 -0.023207076 -0.08923971
000090 2d ff fc 3c 17 14 52 3d 57 c6 bc 3c 77 22 96 3c
       0.030883396 0.05128869 0.023043795 0.018326981
0000a0 41 88 17 3d 8b 11 5a 3b 20 41 12 bb 9f ea e9 3d
       0.036995176 0.0033274617 -0.002231665 0.114217035
0000b0 64 ff c8 bb d3 1e 52 bb 1c 68 26 bd 00 59 0a 3d
       -0.0061339606 -0.003206183 -0.04062663 0.033776283
0000c0 5b 33 83 3d e4 2a 28 3d 63 83 ca 3c 47 cc 48 bc
       0.0640628 0.04105653 0.024720853 -0.012255735
0000d0 8e 91 a5 bd 80 10 4a 3d 10 3d ea 3c 4f 63 48 3c
       -0.08084403 0.049332142 0.02859357 0.012230708
0000e0 1c 1b 0c 3d f9 c0 61 bc c2 49 f4 3c 53 0b 72 3b
       0.03420554 -0.013778918 0.029820327 0.003693302
0000f0 05 e9 87 3d 7e b7 41 3b 3b db 31 3c 5b 6d 09 3b
       0.06636242 0.0029558833 0.010855491 0.0020969722
000100 7d 31 28 b7 ec bb 7a bd 7b 77 48 bd 8a c3 a9 3c
       -1.0025103e-05 -0.061214373 -0.04894207 0.020723123
000110 62 37 a4 bc f2 da 14 3c 1a 5a 1d 3d 36 b2 35 bd
       -0.02004594 0.009085404 0.038416006 -0.04435941
000120 d8 2d ba bd 6d 47 74 3d c2 98 70 ba f1 fd 92 bd
       -0.09090775 0.05963843 -0.0009178036 -0.07177342
000130 cd 11 a5 3d 9b 3b 36 bd 69 7e 9c bd 4c 97 3c 3d
       0.08060036 -0.044490438 -0.07641298 0.046042725
000140 a9 f2 58 3d 16 ff a0 3c c8 65 1f 3d ed ea c3 3c
       0.052965794 0.019652884 0.038915426 0.023915732
000150 fc 92 39 bb ea 31 53 3d 42 eb e0 bb 2a cc 13 3d
       -0.002831637 0.051561274 -0.0068639824 0.036083378
000160 cc 56 22 bc 0f 96 c2 3c 05 fb 1f 3d 40 32 c2 3c
       -0.009908389 0.023753194 0.03905775 0.023705602
000170 2c 62 ba bc 11 ff 8f 3c c9 88 b7 bb 5a 06 4d 3d
       -0.02275189 0.01757768 -0.005601023 0.050054885
000180 0d 7c 90 3c ab c4 35 3c 8b 3a 15 3d da 09 ae 3c
       0.017637277 0.011094253 0.036432784 0.021244932
000190 a5 81 11 bc 1a 01 28 bd a0 81 0b bd 4d 7d 63 3d
       -0.008881007 -0.041016676 -0.034059167 0.055539418
0001a0 5a ca ad bc ba 83 2b 3c d7 a2 f4 bc 10 3d 57 3d
       -0.021214653 0.010468418 -0.029862804 0.052548468
0001b0 be 15 32 bd 89 36 34 3d 47 f6 30 bc 46 a4 09 3d
       -0.043477766 0.04399732 -0.010800905 0.03360393
0001c0 81 91 1a 3d 60 3d 68 bd f5 fa a4 3c 4e 2c 6a 3c
       0.03773642 -0.056699157 0.020139197 0.01429279
0001d0 6e 81 5e bd 1d 93 bc ba 4f fa f3 3c bd 11 f3 bc
       -0.054322653 -0.0014387105 0.029782442 -0.029671544
0001e0 c2 ea 2e bd 5b 3a 04 3d 1b a2 15 ba c6 e2 1a bd
       -0.04270435 0.032282215 -0.00057080545 -0.037813924
0001f0 66 5d 5a bd bd 81 23 bd 36 5b 93 3c fa 36 f1 bb
       -0.053311728 -0.03991865 0.017987829 -0.00736129

weight f4 [10, 128]
000000 7c b5 2e 3e 4d a0 28 be f4 90 ee 3d 39 b1 ce bd
       0.17061418 -0.164674 0.11648741 -0.10092396
000010 4f 33 bf be cc 15 2d be 80 2a 03 be 25 b5 7c be
       -0.37343833 -0.16902846 -0.12809181 -0.24678476
000020 8e ab dc bd 93 61 03 3d 8e a7 5d be 33 1f 31 be
       -0.10774909 0.032075476 -0.21645948 -0.17297058
000030 27 7e 5e be 8a a1 30 be eb 3e 83 3e 80 8f a8 be
       -0.21727811 -0.17249122 0.2563394 -0.32921982
000040 4b 7f 62 be fa e5 88 3d 71 dc 38 be f8 90 e0 bd
       -0.22118871 0.066844895 -0.18052842 -0.109651506
000050 d0 d1 d5 bc ae b3 25 3e 2b 11 cc 3d be 7a 79 3d
       -0.026101023 0.16181824 0.09964212 0.06090807
000060 11 50 b8 3e e2 52 79 be 5f 14 55 be 30 a1 69 be
       0.35998586 -0.24348024 -0.20808552 -0.22815394
000070 a8 ab 5d be 2b c7 94 bd bc 11 0b bc cf 0a 73 be
       -0.21647513 -0.07264551 -0.008488115 -0.23734592
000080 44 bd 08 be 4f 9b 73 3e 4f 04 5e 3c 4e 18 83 be
       -0.13353449 0.23789714 0.013550832 -0.2560448
000090 20 0c 2e be d2 ae 63 be e5 ae 38 be 32 71 49 be
       -0.16996813 -0.22234657 -0.18035467 -0.19672087
0000a0 1e a1 58 bd a9 d4 62 3e d2 e9 b8 3d ff 78 be 3d
       -0.05288803 0.22151436 0.09028973 0.09300422
0000b0 78 88 1c be a0 56 3c 3e 5b 24 a2 3e f6 b2 69 be
       -0.15286434 0.1839242 0.31668362 -0.22822174
0000c0 72 50 21 be b9 49 c1 3d 8e ba 36 3e 08 e6 47 be
       -0.15753344 0.094378896 0.17844602 -0.19521344
0000d0 57 bd 3b be 39 3b 42 3e b2 0e a7 3e 92 70 4d be
       -0.18333946 0.18967904 0.326284 -0.20062473
0000e0 02 6b 74 be 4a 7f 96 be 3e a8 50 3e f7 d0 1d be
       -0.23868945 -0.2939399 0.2037668 -0.15411745
0000f0 6b 30 50 3e db 8c 88 be c3 5a 11 be 5f 9b 8d be
       0.2033097 -0.26669964 -0.14194779 -0.276576
000100 d9 f3 33 be 0e 67 12 be d2 5b 26 be bd 20 1e be
       -0.17573489 -0.14297125 -0.16245964 -0.15442176
000110 2d 99 9a be 01 32 bf 3b 65 ef 38 be d8 f8 c0 bd
       -0.3019499 0.0058348184 -0.18060072 -0.09422463
000120 39 c8 62 be a7 55 19 3e f3 13 3f 3c 50 0e 08 be
       -0.22146691 0.1497408 0.011662471 -0.1328671
000130 28 fe da 3d 2e 88 3e bd 34 2c 2d 3e 41 81 4c be
       0.10693008 -0.04651659 0.16911393 -0.19971181
000140 db 43 0e 3e 0b 28 85 be 80 43 2c be 33 c5 65 3d
       0.13893072 -0.26007113 -0.16822624 0.056096267
000150 7a 72 84 3e d9 f9 a7 bd 59 5b 52 3e 7b a8 16 3e
       0.2586859 -0.082019515 0.20542659 0.14712708
000160 30 a4 84 3e 54 c6 32 be 3f 86 8e 3e b6 2a 7d bd
       0.25906515 -0.17458469 0.27836797 -0.06180831
000170 c7 30 07 be 5e c4 63 be e7 bc 89 3e ab 21 89 3e
       -0.13202201 -0.22242877 0.26901934 0.267835
000180 be 19 70 3c 74 20 ed 3d 58 6f 0b be f2 c6 48 3e
       0.014654575 0.115784556 -0.13616693 0.19607142
000190 0f 6c 92 be ce 0e 96 be 20 8b 8a bd ea 16 8c 3e
       -0.28598067 -0.2930817 -0.06764817 0.27361232
0001a0 39 c4 df bc 09 c1 31 3c 0f 1a 3e be 17 ee 07 be
       -0.027315246 0.010849246 -0.18564628 -0.13274418
0001b0 b3 24 53 be af e7 67 be 87 7a 8e be e6 b6 84 be
       -0.20619468 -0.22646974 -0.27827856 -0.2592079
0001c0 86 13 1b be e2 43 2d be 7b 15 5c 3e 18 83 6f be
       -0.15144166 -0.16920426 0.21492569 -0.23389852
0001d0 47 69 bf be 6b c9 5a be 3b 02 84 bd 19 85 6f be
       -0.37385008 -0.21365897 -0.06445738 -0.23390616
0001e0 11 f3 38 3d 7e 8b 4e 3e 96 e1 4f 3e a9 77 03 3d
       0.04515368 0.201704 0.20300898 0.03209654
0001f0 ee 14 ac 3d 59 8f 11 bd 6e 9a 11 be 7d d5 e0 3d
       0.084024295 -0.035537098 -0.14219067 0.1097822
000200 74 7e 83 be b7 cf 7b 3e 6c 86 cb bd cf f9 8b bd
       -0.25682414 0.24590956 -0.09937748 -0.068347566
000210 14 56 d7 3d 28 37 03 be e9 82 83 3d 4f eb 60 3d
       0.10514465 -0.12814009 0.064214535 0.054911908
000220 36 d1 a9 3e aa d2 76 3e 8e 36 52 3e 28 ea 62 bc
       0.33167428 0.241038 0.20528623 -0.0138497725
000230 a6 60 72 3e b8 03 d7 3d 23 cd 0c be e1 88 68 be
       0.23669681 0.10498756 -0.13750128 -0.22708465
000240 b9 52 1c be 91 bc cb bd a6 9f 1b bd 2b cd fa 3d
       -0.15265931 -0.099480756 -0.03799405 0.12246164
000250 9e 5c 89 3c a0 de e4 bd 67 13 e8 bd c6 8a 1a be
       0.016767796 -0.11175275 -0.11331826 -0.15092
000260 e9 a8 00 be 35 aa 22 3e f4 3c 83 3e 23 38 6d 3e
       -0.12564434 0.15885241 0.2563244 0.23165946
000270 9c 6a 4a 3d c3 61 33 3d e5 12 ea bd d5 26 b2 3e
       0.049418077 0.043794405 -0.11429385 0.3479525
000280 6d d9 e7 3d ca 51 a9 be 6e 0d 59 bd 3a 42 62 be
       0.113207676 -0.33070213 -0.052991323 -0.22095576
000290 6c 0c eb 3c df 25 8e 3e b1 5a 85 3e 2b be 3b 3e
       0.028692447 0.27763268 0.26045755 0.18334262
0002a0 a5 10 3b 3e f9 ff ac bd 83 ed 8a 3d 17 59 7d 3e
       0.18268068 -0.084472604 0.06783583 0.24741016
0002b0 26 21 fb 3c ca 1f 85 be 15 f5 46 be 9e 68 40 3e
       0.030655455 -0.26000816 -0.19429429 0.18789908
0002c0 f5 05 94 3e c0 10 3d 3e 0a f6 a1 3d be 1d 0d be
       0.28910795 0.18463421 0.07908256 -0.13780877
0002d0 2a c0 98 be d6 83 32 3e 48 a4 04 3e a5 7e 27 3e
       -0.2983411 0.17433104 0.12953293 0.16356905
0002e0 f9 4e 68 3e ae 7a 41 be 77 8a 82 bd 43 7b a2 3e
       0.22686376 -0.18894455 -0.06374066 0.31734666
0002f0 7a 9e 94 3e 6c e0 0e 3e 23 41 3f 3e f0 75 10 38
       0.29027158 0.13952798 0.18677191 3.4442113e-05
000300 23 a6 44 3e f6 92 e8 bd 3f d5 21 be 0c b6 82 3e
       0.19204001 -0.113561556 -0.15804003 0.25529516
000310 79 3e 20 3e 58 eb 2f 3e 66 aa 42 3e 18 25 03 bd
       0.15648831 0.1717962 0.19010314 -0.032017797
000320 c3 55 a6 be 92 a9 b0 3e 8b ec 66 3e d8 9d 90 be
       -0.32487306 0.34504372 0.22551171 -0.28245425
000330 63 6b 5e 3e d9 76 90 be d7 0c a9 be 4c de 1c 3e
       0.21720652 -0.28215674 -0.3301761 0.15319175
000340 41 2b cb 3e cb 7b 00 3e 46 1b 3e 3e 00 f3 ab 3d
       0.39681438 0.12547223 0.18565091 0.08395958
000350 3e 99 14 be 8f 17 78 3e 4d 5e d7 3c 4d c8 57 be
       -0.14511582 0.24227737 0.026290083 -0.21072502
000360 35 ed 1c be 9a b7 9f 3e f3 b4 1f 3e 7a 01 39 3e
       -0.15324862 0.31194764 0.1559637 0.1806697
000370 ad 53 5d be 88 ea 8d 3d e4 71 e4 bd d4 a4 1d be
       -0.21613951 0.06929499 -0.111545354 -0.15394908
000380 1a e5 6c be 8b b7 38 3e f3 a4 a3 3e 2a 39 0c 3e
       -0.2313427 0.18038766 0.31961784 0.13693681
000390 0a fa c2 ba 04 e8 dc 3d b8 1e ac be 9c ec 50 bd
       -0.0014875543 0.10786441 -0.33617187 -0.0510069
0003a0 99 f2 3c be 51 45 01 bd 19 d7 2e be 7e 03 3d 3e
       -0.18451919 -0.031560246 -0.1707424 0.18458363
0003b0 76 11 a4 bd 21 79 1c 3e b7 b1 59 3e 88 e1 c0 3c
       -0.08011143 0.15280582 0.21259199 0.023545042
0003c0 c6 3c c6 3e 48 8a 4f be 66 35 e9 3d db 35 0d 3e
       0.3871824 -0.20267594 0.11387138 0.13790075
0003d0 f6 db 2b be 1e b5 0a be 5c 12 9f 3e d9 cf 67 bd
       -0.16783127 -0.13545653 0.31068695 -0.056594703
0003e0 43 78 2b be 9d 24 40 3e 5e 40 79 be 1f b9 dd bd
       -0.16745095 0.18763967 -0.2434096 -0.10826325
0003f0 aa 6c 80 be ff 45 09 3e 58 1e b7 3d dd a9 8b bd
       -0.25082904 0.13405608 0.089413345 -0.06819508

bias f4 [10]
000000 66 fb 5a bd 9b f7 4f 3e 80 c9 fc 3b be 39 d1 bd
       -0.05346241 0.20309298 0.0077144504 -0.102160916
000010 dd e1 88 bd 06 b7 8e bd 4c 70 6b be 62 be 46 3d
       -0.06683705 -0.06968503 -0.22992057 0.048521407
000020 02 47 1f 3e 24 1e 87 3c
       0.15554431 0.016493864
