DigitRecognition/part2-mnist/mnist_model_fully_connected.pt (torch_old, 414989 bytes, 4 tensors)

weight f4 [128, 784]
0	0x3cf1dd72	0.029524539
1	0xbbd82330	-0.0065959916
2	0xbd0f5985	-0.03499748
3	0x3c28593c	0.010275181
4	0x3d07724d	0.03306799
5	0x3cfe56fe	0.03104734
6	0xbd1016e0	-0.035178065
7	0x3d03abd9	0.03214631
8	0x3c3195b8	0.010838918
9	0xbd06b2ff	-0.032885548
10	0x3d0c707f	0.034286972
11	0x3b01a650	0.0019782968
12	0x3ba067a8	0.0048951693
13	0x3c616490	0.013756886
14	0x3c2f865c	0.010713186
15	0xbcaedb0c	-0.021344684
16	0x3ca78680	0.020449877
17	0x3ccef478	0.025263056
18	0xbc96d14e	-0.018410351
19	0x3c8d6124	0.017258234
20	0xbbd017b0	-0.00635048
21	0xbcbdbc9e	-0.023161229
22	0xbc60f5ae	-0.01373045
23	0xbb8900c0	-0.0041809976
24	0xbca0f045	-0.01964582
25	0x3ca4752e	0.020075407
26	0x3cac4dde	0.021033224
27	0xbc8aa7aa	-0.016925652
28	0xbcb59ef0	-0.022170514
29	0x36d5a000	6.366521e-06
30	0x3c0019e0	0.007818669
31	0x3caf42d0	0.021394163
32	0xbb996c9c	-0.0046821367
33	0xbcbb6818	-0.022876784
34	0xb8bd5e00	-9.029731e-05
35	0x3cddf89d	0.027096087
36	0x3c67f7f2	0.014158236
37	0x3cf8a716	0.03035311
38	0x3b3c76ad	0.002875726
39	0xbcc25742	-0.023723248
40	0xbbd57dcd	-0.0065152408
41	0xbd0427be	-0.032264464
42	0x3d00f02b	0.031479042
43	0xb9dbd8f9	-0.00041932592
44	0x3c6248ef	0.013811334
45	0x3bdf0db1	0.006807052
46	0xbc9853cf	-0.01859465
47	0x3b3aea20	0.0028520897
48	0x3c259d74	0.0101083405
49	0xbd0e822d	-0.034792114
50	0xbcc80e2c	-0.02442082
51	0x3d0efb0c	0.034907386
52	0x3c91b124	0.017784663
53	0x3c8dd050	0.017311245
54	0xbc6c23e0	-0.01441285
55	0xbd09ab88	-0.03361085
56	0xbc6e1778	-0.014531963
57	0xbcb564aa	-0.022142727
58	0xbc5fc8aa	-0.013658682
59	0x3d1026d9	0.035193298
60	0x3cdadb8e	0.02671602
61	0x3cca9e97	0.024733825
62	0xbcf37ccd	-0.029722596
63	0x3c5edfc2	0.013603153
64	0xbcabe9a3	-0.02098543
65	0xbc070f7b	-0.008243437
66	0x3cc0b67c	0.023524515
67	0xbbeceee6	-0.0072306274
68	0x3d022273	0.031771135
69	0x3c475664	0.012166593
70	0xbc88efd4	-0.016715921
71	0xbc4a6cad	-0.012355012
72	0x3c53da62	0.0129304845
73	0xbc6bd9b7	-0.014395169
74	0xbd25fd51	-0.040524784
75	0x3b8adc14	0.004237661
76	0x3c52d910	0.012869135
77	0x3c86401b	0.01638799
78	0xbaaa7e6c	-0.0013007647
79	0x3bb94f5d	0.005655213
80	0x3c1981e5	0.009369348
81	0xbcc75683	-0.024333244
82	0x3bf99be8	0.0076174624
83	0xbc1bc9b2	-0.009508537
84	0x3ba51f48	0.0050391294
85	0x3c134aa0	0.00898996
86	0xbcf484aa	-0.029848415
87	0x3d057f83	0.032592308
88	0x3d00d086	0.031448863
89	0xbd01b6f8	-0.031668633
90	0xbc0b1dfa	-0.008491034
91	0x3c6b2e71	0.014354334
92	0xbc4323c9	-0.011910387
93	0xbb87e527	-0.00414719
94	0xbd24566d	-0.040121485
95	0x3c18d8b2	0.009329008
96	0xbd81e43c	-0.063423604
97	0xbc17e5bf	-0.009271084
98	0xbd806bd9	-0.0627057
99	0xbd477753	-0.04869778
100	0xbdd44a6e	-0.10365759
101	0xbdb33fd0	-0.08752406
102	0xbdc2a5dd	-0.09504292
103	0xbbfb6fa4	-0.0076732207
104	0xbd7988ec	-0.060921595
105	0xbd3cc2d3	-0.046084236
106	0x38b725f9	8.733193e-05
107	0xbc00eb55	-0.0078686075
108	0xbb85b48c	-0.0040803608
109	0xbc9f6532	-0.019457433
110	0xbc988743	-0.018619185
111	0xbcdd7753	-0.027034437
112	0xbd120e86	-0.035658382
113	0xbcc4b450	-0.024011761
114	0x3c9c49a5	0.019078085
115	0x3be3f0fe	0.0069562187
116	0xbca95726	-0.020671438
117	0x3cd93ff2	0.02651975
118	0xb82ede8e	-4.1692103e-05
119	0xbd0489c9	-0.032357965
120	0xbd2e3c7a	-0.042538144
121	0xbc6c095b	-0.014406527
122	0xbd71831b	-0.058962923
123	0xbd8168c9	-0.06318814
124	0xbdf58d18	-0.11989802
125	0xbd420189	-0.047364745
126	0xbdba997e	-0.091113076
127	0xbdc20ad0	-0.094747186
128	0xbd3a76ec	-0.04552357
129	0xba170d4b	-0.00057621737
130	0x3c5dd7fc	0.013540264
131	0x3be7e6d4	0.0070770774
132	0xbc85e3e9	-0.016344028
133	0xbca335cf	-0.019923119
134	0xbcf6962e	-0.030100908
135	0xbd1e8b89	-0.03870729
136	0xbcc2d62e	-0.02378377
137	0xbc9f045e	-0.019411262
138	0xba119788	-0.0005553891
139	0x3d02a2e3	0.031893622
140	0x3c22d590	0.009938613
141	0xbcf01841	-0.02930844
142	0x3c5a0e4e	0.013309075
143	0xbba774c5	-0.0051103556
144	0xbcc60c12	-0.024175677
145	0x3cad889a	0.0211833
146	0xbc8d1b08	-0.017224804
147	0xbd34b30b	-0.04411606
148	0x3d8cfaf1	0.06883801
149	0x3d3b61f7	0.045747723
150	0xbda57840	-0.080795765
151	0xbd0608b4	-0.032723144
152	0xbd0df8a6	-0.034660958
153	0xbcfaed87	-0.03063084
154	0xba9d6d3d	-0.0012010705
155	0x3c8d462a	0.01724537
156	0x3d5ff34b	0.05467538
157	0xbaaf6149	-0.0013380434
158	0xbcbe8d1f	-0.023260651
159	0xbb315f9c	-0.0027065044
160	0xbc0fc5fb	-0.00877523
161	0xbcef64ec	-0.029222928
162	0x3d5a5ab3	0.053309154
163	0xbb699f63	-0.003564798
164	0x3cafca3f	0.021458743
165	0xbc94b29a	-0.01815157
166	0x3d097bcb	0.033565324
167	0xbcbd5f40	-0.023116708
168	0xbd0f0b60	-0.034922957
169	0xbcbaf56f	-0.02282211
170	0x3cb28f4e	0.021796849
171	0x3ca0e4cd	0.01964035
172	0x3c79befe	0.01524329
173	0x3ca8f208	0.020623222
174	0xbc84c6f3	-0.016208148
175	0xbb5b8e6d	-0.003350164
176	0x3c32fdc3	0.010924759
177	0xbbe487d9	-0.006974202
178	0xbc283a5b	-0.010267819
179	0x3d53980c	0.051658675
180	0x3dc8f59f	0.098124735
181	0x3d0a37cf	0.03374463
182	0xbceea11d	-0.02912956
183	0xbd09f22f	-0.03367823
184	0xbd4d56c6	-0.05013158
185	0x3d890ef3	0.066923045
186	0x3c6a4464	0.014298532
187	0x3cb91ea4	0.022597618
188	0xbc56d160	-0.013111442
189	0x3db57c4f	0.088616006
190	0x3d27c20c	0.040956542
191	0x3b99b569	0.004690815
192	0x3cdaff76	0.026733141
193	0xbc63d351	-0.013905362
194	0xbb7a6928	-0.003820965
195	0xbba8b912	-0.005149015
196	0x3b966d32	0.004590654
197	0xbc89d059	-0.01682298
198	0x3c09811b	0.008392598
199	0x3caeb1c8	0.021325007
200	0x3cbead32	0.023275945
201	0x3c667000	0.014064789
202	0x3c705464	0.014668558
203	0xbbe2bd8d	-0.006919569
204	0x3ca5f021	0.020256104
205	0x3cd265c1	0.025683286
206	0xbd125cf8	-0.035733193
207	0xbdc92ee1	-0.098233946
208	0x3c057e52	0.008147793
209	0x3c4ecbd9	0.012621843
210	0xbd60cb14	-0.05488117
211	0xbd6216a8	-0.055197388
212	0x3b48aa57	0.0030619109
213	0xbbf49f03	-0.0074652447
214	0x3e0219a6	0.12705097
215	0x3dceddbd	0.10100887
216	0x3d934c9a	0.07192345
217	0x3e1881e4	0.148933
218	0x3e037194	0.12836295
219	0x3d78a62a	0.06070534
220	0xbd093f42	-0.033507593
221	0x3c73b3a1	0.01487437
222	0xbcec0fde	-0.02881616
223	0xbc7cd113	-0.015430707
224	0xbc6f125e	-0.014591781
225	0xbc2a6311	-0.010399596
226	0x3cdc6e7d	0.026908154
227	0x3ca7f6cd	0.020503426
228	0x3de74f2e	0.11294399
229	0x3dbf0c4a	0.09328516
230	0x3d2d5c8c	0.042324588
231	0x3dd75aa5	0.10515336
232	0x3dc4af99	0.09603805
233	0x3d2918f4	0.041283563
234	0x3c0415e2	0.008061858
235	0xbc202bc9	-0.009776064
236	0x3d1160d4	0.035492733
237	0x3da4e6fc	0.08051869
238	0x3d058f4b	0.032607358
239	0x3b6bb04c	0.0035963235
240	0xbbedb4aa	-0.007254203
241	0x3ca8b3f7	0.020593626
242	0x3d261a88	0.040552646
243	0x3df401f1	0.11914433
244	0x3de0675f	0.109572165
245	0x3cd8a12f	0.026444046
246	0x3dc594e6	0.09647541
247	0x3dcb673a	0.09931798
248	0xbd151b4c	-0.036402985
249	0xbd361ef5	-0.044463117
250	0x3bd3e6f9	0.006466743
251	0xbc9f2a0d	-0.019429231
252	0xbc29a92a	-0.010355273
253	0xbc47f4fb	-0.012204404
254	0x3c94a1fe	0.01814365
255	0x3cb8f7fe	0.02257919

bias f4 [128]
0	0xbdf1117d	-0.11770914
1	0xbcc96da0	-0.024588406
2	0x3d68a458	0.056797355
3	0x3c2b11a2	0.010441216
4	0x3d7cb075	0.06169172
5	0xbcd12a1d	-0.025532776
6	0xbb518f75	-0.0031976376
7	0xbdf9dbe9	-0.12200148
8	0x3dff3535	0.1246132
9	0x3d59c70a	0.053168334
10	0xbdbb6682	-0.09150411
11	0x3d8065f4	0.06269446
12	0x3d3a419e	0.045472734
13	0x3d9f2e2b	0.07772478
14	0xbc066c93	-0.008204597
15	0x3e05a639	0.1305169
16	0x3dc50325	0.096197404
17	0x3da7d172	0.081942454
18	0xbc3497a8	-0.011022486
19	0x3d8b0206	0.06787495
20	0x3b0b27f6	0.0021233535
21	0xbde1d430	-0.110268
22	0xbd738905	-0.059456844
23	0x3dca24af	0.09870278
24	0x3d7b9660	0.061422706
25	0xbceb8cac	-0.028753601
26	0x3d14d624	0.036337033
27	0xbd0a9d7c	-0.033841595
28	0xbe0b1442	-0.13581946
29	0xbd90f0f9	-0.07077212
30	0x3dbbaf31	0.091642745
31	0xbe133eed	-0.14379473
32	0x3e10860a	0.14113632
33	0x3e21d913	0.15805463
34	0x3d1b4cfc	0.037915215
35	0x3df68f79	0.12039084
36	0x3b8cb287	0.004293743
37	0x3d852cfe	0.06502722
38	0x3d1c7b73	0.038203668
39	0xbd01bdae	-0.031675033
40	0xbd729761	-0.059226397
41	0x3c90e141	0.017685534
42	0xbd0ed1ee	-0.034868173
43	0xbd88c0bd	-0.06677387
44	0xbc5d4ff0	-0.013507828
45	0x3cc5787a	0.0241053
46	0xbd5842a7	-0.05279794
47	0xbc7e764f	-0.015531137
48	0x3d62795d	0.055291522
49	0xbc2d8b1d	-0.010592249
50	0x3ea86ed5	0.32897058
51	0x3e6de197	0.23230587
52	0xbcf997e6	-0.030467939
53	0xbd75c1a2	-0.059999116
54	0x3c9a78f3	0.018856501
55	0x3d261d59	0.04055533
56	0x3c20c6b1	0.009812997
57	0x3bb0e534	0.005398417
58	0x3de00043	0.1093755
59	0xba2cfe83	-0.00065992045
60	0xbdba761b	-0.09104558
61	0xbdac27c7	-0.084060244
62	0x3d25ab64	0.040446654
63	0x3c7abce2	0.015303822
64	0x3e1d9543	0.1538897
65	0x3dea38a3	0.11436584
66	0x3db3159c	0.08744356
67	0x3e6d2f46	0.23162565
68	0x3db7e6b0	0.08979547
69	0x3d86ed62	0.06588246
70	0x3e44fc3e	0.19236848
71	0xbe185524	-0.14876229
72	0x3e2b3ab5	0.16721614
73	0x3e2e2496	0.17006144
74	0x3e05cf04	0.13067251
75	0x3ce34ebc	0.027747504
76	0x3d956a6d	0.0729569
77	0x3dc7a494	0.09748188
78	0x3d5f6f4c	0.0545495
79	0x3d9f8ec8	0.07790905
80	0x3cf0dcf3	0.029402232
81	0x3e4be9e1	0.19913436
82	0x3dcd56db	0.10026332
83	0x3d296b89	0.04136232
84	0x3d3c0cb6	0.04591056
85	0xbd31498d	-0.043283034
86	0x3e00c598	0.12575376
87	0x3d25f8e8	0.04052058
88	0x3d7c3ead	0.06158321
89	0xbcec1764	-0.028819747
90	0x3d03602c	0.03207414
91	0x3d919dd2	0.0711018
92	0xbd999ba2	-0.07500388
93	0xbd846eaf	-0.06466424
94	0x3caf0ae5	0.0213675
95	0x3de93575	0.11387149
96	0xbcafacca	-0.021444697
97	0xbd8e96c1	-0.06962348
98	0x3d08975d	0.033347476
99	0xbe37fbb2	-0.17967108
100	0x3d5d7fc0	0.05407691
101	0x3d70d469	0.05879632
102	0x3dee3cff	0.11632728
103	0xbbfa1c84	-0.007632794
104	0x3de5b4e0	0.1121614
105	0xbd19234b	-0.037387174
106	0x3d83501a	0.064117625
107	0xbd6e57f8	-0.058189362
108	0x3cc762f7	0.024339182
109	0x3bb858c2	0.005625815
110	0x3e2581d5	0.16162808
111	0xbdd09196	-0.10184018
112	0x3e22613e	0.15857407
113	0xbd283771	-0.041068498
114	0x3ca44d23	0.020056313
115	0x3c3d9d86	0.011573201
116	0xbd558441	-0.05212808
117	0x3e11146a	0.14167944
118	0x3e861fd8	0.2619617
119	0x3dbed1d8	0.09317368
120	0xba00109c	-0.00048852875
121	0x3d1962b7	0.037447657
122	0x3e11aaa1	0.14225246
123	0xbd24a70c	-0.04019837
124	0x3d7b9218	0.061418623
125	0x3dbd219a	0.092349246
126	0x3d54e614	0.051977232
127	0x3d8b51f5	0.068027414

weight f4 [10, 128]
0	0xbf079840	-0.5296669
1	0xbd91578d	-0.07096777
2	0x3ea9e9a1	0.33186057
3	0x3dda15c8	0.10648686
4	0x3f0ea8aa	0.5572611
5	0xbc0f89c2	-0.008760871
6	0xbe1f6a66	-0.15567932
7	0x3eb58622	0.35453898
8	0xbc40d2e5	-0.011769031
9	0xbde695bf	-0.112590306
10	0xbec6d15c	-0.38831604
11	0xbef13e1c	-0.47117698
12	0x3f01fe0b	0.50778264
13	0xbb509230	-0.0031825416
14	0x3d1e37e6	0.038627528
15	0xbe78d9d9	-0.24301852
16	0xbda3a7e2	-0.079910055
17	0xbe82631c	-0.2546624
18	0xbda70b5c	-0.081564635
19	0xbdffc9bd	-0.124896504
20	0x3e7547b2	0.23953131
21	0x3e761e07	0.24034892
22	0xbe3dad82	-0.18523219
23	0x3df78454	0.120857865
24	0xbecd540e	-0.4010319
25	0xbede44f7	-0.4341199
26	0x3d258b4e	0.040416054
27	0x3c5bf0f8	0.013424151
28	0xbf17d598	-0.59310293
29	0x3e04b59e	0.12959906
30	0x3f18a7aa	0.59630835
31	0x3ed33204	0.41249096
32	0x3f017254	0.50565076
33	0x3cb3f086	0.021965276
34	0x3eaa2351	0.3323007
35	0xbec081fb	-0.37599167
36	0x3e62625a	0.2210783
37	0x3e81e985	0.25373474
38	0x3d9eed46	0.077601
39	0xbd127beb	-0.03576271
40	0x3cc23332	0.023706052
41	0xbdf2ad6d	-0.118494846
42	0xbed4b250	-0.41542292
43	0xbe6dc89d	-0.23221059
44	0xbf0a7cbc	-0.5409658
45	0x3da5dbb1	0.080985434
46	0x3e2fb41c	0.1715855
47	0x3ea0aca9	0.3138173
48	0xbd843ec8	-0.06457287
49	0x3ed8eae3	0.42366704
50	0xbdf722d1	-0.120671876
51	0xbe66a312	-0.22523144
52	0x3ee89f0a	0.45433837
53	0x3ec942a6	0.3930866
54	0x3eb3c30d	0.3510975
55	0x3e2d0394	0.16895896
56	0x3e1b1fe0	0.15148878
57	0x3d5ae95a	0.053445198
58	0xbeb0a4de	-0.34500784
59	0xbd41109e	-0.047134988
60	0x3e88dc7b	0.26730713
61	0xbe9e3bed	-0.30905095
62	0x3cbe87f6	0.02325819
63	0x3d812ab8	0.06306976
64	0x3d549d4d	0.051907826
65	0x3e872894	0.26398146
66	0x3e4ba26b	0.19886176
67	0xbeecbfd2	-0.46240097
68	0x3e62f1c9	0.22162546
69	0xbe63af4c	-0.22234839
70	0x3d8dafbe	0.06918286
71	0xbe06f7bf	-0.13180445
72	0xbe977192	-0.29578835
73	0x3f26a22d	0.6509121
74	0xbccdf4ec	-0.025141202
75	0xbe42e2f4	-0.19031888
76	0x3e8b31a4	0.2718631
77	0xbbdb3e88	-0.006690804
78	0xbe73663a	-0.23769465
79	0xbf002e37	-0.5007052
80	0xbf36cadd	-0.71403295
81	0x3f099469	0.5374208
82	0xbed28ae3	-0.41121587
83	0xbeb510a7	-0.35364267
84	0xbe067da7	-0.1313387
85	0xbe085f39	-0.13317575
86	0x3ea21ba9	0.31661728
87	0xbdb9ec8c	-0.09078321
88	0xbe55327d	-0.20820041
89	0x3ed9575a	0.42449456
90	0x3e8f9490	0.28043032
91	0x3ec189f1	0.37800553
92	0x3ed4675f	0.41485116
93	0xbe7ea06b	-0.24865882
94	0xbd6a450e	-0.057194762
95	0xbe8e441f	-0.27786347
96	0x3df8816b	0.121340595
97	0xbde270f2	-0.11056699
98	0x3d975876	0.073899195
99	0x3e268323	0.16260962
100	0xbd2f74fb	-0.04283617
101	0xbe9745a9	-0.29545334
102	0x3dd3f7c0	0.10349989
103	0x3b613523	0.0034363947
104	0xbeaa477e	-0.3325767
105	0xbe4922c7	-0.19642173
106	0xbca938b1	-0.020656915
107	0xbede7596	-0.43449086
108	0xbed9b57c	-0.42521274
109	0xbf0f29a7	-0.5592293
110	0xbeb17c32	-0.34665066
111	0x3bcf76dd	0.0063313083
112	0xbeb005c6	-0.34379405
113	0x3db917c4	0.09037736
114	0xbeb7cd55	-0.35898843
115	0xbd0b681e	-0.03403484
116	0xbe9d064b	-0.30668864
117	0xbe7419e0	-0.23837996
118	0xbd53d4d6	-0.051716648
119	0xbeaa1983	-0.3322259
120	0xbe30e2ee	-0.17274067
121	0x3c8bb2fa	0.017053116
122	0xbee6b526	-0.4506008
123	0x3ca83660	0.02053374
124	0xbe6073ed	-0.21919222
125	0xbe6f5b4f	-0.23374675
126	0x3e6092b4	0.21930963
127	0xbb07622f	-0.0020657887
128	0x3ecedf6c	0.40404832
129	0xbecece3f	-0.40391728
130	0x3e96ec1f	0.2947702
131	0xbebc999f	-0.36835954
132	0xbe8cbc0d	-0.2748722
133	0x3ef1a7b8	0.47198272
134	0x3da20dc0	0.07912779
135	0xbe61952f	-0.22029565
136	0xbdf48ad1	-0.1194054
137	0xbec31822	-0.3810435
138	0x3e84bce6	0.25925368
139	0x3eda9c3f	0.4269733
140	0xbed01035	-0.40637365
141	0xbe0f7a8a	-0.14011589
142	0x3e7886b2	0.24270132
143	0xbe8b3a6b	-0.27193007
144	0x3ec85b18	0.39132
145	0xbe959fc5	-0.29223457
146	0x3d79f399	0.06102333
147	0x3e1c30d6	0.15253004
148	0xbe77ee33	-0.2421196
149	0x3e88f612	0.26750237
150	0x3e619700	0.22030258
151	0xbcd61dcb	-0.026137253
152	0x3e9193ca	0.28433067
153	0xbe8028b6	-0.2503106
154	0xbdbdd77c	-0.09269616
155	0x3ee535f6	0.4476773
156	0x3e888fcb	0.26672205
157	0xbce173ce	-0.02752104
158	0xbefa39e0	-0.4887228
159	0xbd506a6e	-0.05088275
160	0xbe87d266	-0.2652771
161	0x3f71ab83	0.9440233
162	0xbf2e20f4	-0.6801903
163	0x3e8f1ef5	0.27953306
164	0xbebf2126	-0.37329978
165	0xbe7790d9	-0.24176349
166	0xbeed2ffb	-0.4632567
167	0xbe47e2da	-0.19520131
168	0x3dc606b5	0.09669248
169	0x3f4af034	0.7927277
170	0x3d22431e	0.03961479
171	0x3e105744	0.14095789
172	0x3eebce88	0.46056008
173	0xbc3a8e9e	-0.011386542
174	0xbe577277	-0.21039759
175	0xbe2829db	-0.16422217
176	0x3e9b65f2	0.30351216
177	0x3d30457a	0.043035008
178	0x3f1839b8	0.5946307
179	0xbe57eef8	-0.21087253
180	0xbe962ae2	-0.29329592
181	0x3e8f3fce	0.27978367
182	0x3dd60fec	0.104522556
183	0x3e3553e9	0.1770779
184	0xbcbc2bc9	-0.022970097
185	0xbccb9acd	-0.024854088
186	0xbece6adf	-0.4031591
187	0x3d34368d	0.043997336
188	0xbe582238	-0.21106803
189	0xbce9733f	-0.028497336
190	0x3d8ba470	0.06818473
191	0xbc3f9c30	-0.011694953
192	0x3ea005a6	0.3125431
193	0xbeb43f8c	-0.35204732
194	0x3c013cf3	0.007888067
195	0xbf0776f4	-0.52915883
196	0xbeaf25ec	-0.3420862
197	0x3e7d4e8e	0.24736997
198	0xbe20cdc0	-0.15703487
199	0xbe808f3d	-0.25109282
200	0xbe781784	-0.2422772
201	0xbe99c3a1	-0.30032066
202	0xbe5065ac	-0.20351285
203	0x3e6c3e81	0.23070718
204	0xbdaf838b	-0.08570012
205	0xbe2a95d4	-0.16658717
206	0x3c295919	0.010336184
207	0xbea3f3e7	-0.3202202
208	0x3f104827	0.56360096
209	0x3e6ee592	0.23329762
210	0x3daf665a	0.08564444
211	0x3e9563e2	0.29177767
212	0xbd56c8d3	-0.052437615
213	0xbd2e81e1	-0.04260433
214	0xbd9caf4e	-0.07650624
215	0x3e7ee3f4	0.24891645
216	0x3f309862	0.6898252
217	0xbee965e8	-0.4558556
218	0xbe1194ca	-0.14216915
219	0xbe165a2a	-0.14682832
220	0x3e833b00	0.2563095
221	0x3ea81ecc	0.32835996
222	0xbd655313	-0.05598743
223	0x3e6ef560	0.2333579
224	0xbee0a4a2	-0.43875605
225	0xbd0f5d33	-0.03500099
226	0xbdb8a433	-0.090156935
227	0xbf0faf5d	-0.5612696
228	0x3de8379d	0.113387324
229	0x3e1ad385	0.15119751
230	0xbd68af0e	-0.05680757
231	0x3e552743	0.20815758
232	0x3e69fbac	0.22849911
233	0x3ef25828	0.47332883
234	0xbe41dd0f	-0.18931983
235	0x3f31cfec	0.6945789
236	0xbecfb56a	-0.40568095
237	0xbe31ffaf	-0.17382692
238	0x3d41adca	0.04728488
239	0xbe2a998a	-0.16660133
240	0xbdf49e02	-0.119442
241	0xbe8981e4	-0.2685691
242	0xbccc1bda	-0.024915624
243	0xbd148358	-0.03625807
244	0xbc43adca	-0.01194329
245	0xbefab97d	-0.4896964
246	0xbd292102	-0.041291244
247	0x3edf5dac	0.43626153
248	0xbd80b6aa	-0.062848404
249	0xbed44e21	-0.41465858
250	0x3ef0bf3a	0.47020894
251	0x3d8002b2	0.06250514
252	0xbc79583d	-0.015218792
253	0xbdbc15e6	-0.09183864
254	0xbea714bc	-0.32633007
255	0x3d7893c4	0.060687795

bias f4 [10]
0	0xbe9303de	-0.28713888
1	0x3e6f85bb	0.23390858
2	0xbddbdb35	-0.1073517
3	0xbe29bdd6	-0.16576323
4	0x3e18821f	0.14893387
5	0x3e8714ce	0.2638306
6	0xbd9da4f4	-0.07697478
7	0x3d1c2c83	0.038128387
8	0x3e250a92	0.16117314
9	0x3a95f6aa	0.001144131
